<?xml version="1.0"?>
<net name="TensorFlow_Frontend_IR" version="11">
	<layers>
		<layer id="0" name="input_tensor" type="Parameter" version="opset1">
			<data shape="?,?,?,3" element_type="u8" />
			<output>
				<port id="0" precision="U8" names="input_tensor">
					<dim>-1</dim>
					<dim>-1</dim>
					<dim>-1</dim>
					<dim>3</dim>
				</port>
			</output>
		</layer>
		<layer id="1" name="Constant_76136" type="Const" version="opset1">
			<data element_type="i32" shape="" offset="0" size="4" />
			<output>
				<port id="0" precision="I32" />
			</output>
		</layer>
		<layer id="2" name="map_1/while/loop_counter" type="Const" version="opset1">
			<data element_type="i32" shape="" offset="4" size="4" />
			<output>
				<port id="0" precision="I32" />
			</output>
		</layer>
		<layer id="3" name="Constant_14213" type="Const" version="opset1">
			<data element_type="i32" shape="" offset="0" size="4" />
			<output>
				<port id="0" precision="I32" />
			</output>
		</layer>
		<layer id="4" name="BatchMultiClassNonMaxSuppression/map/while/loop_counter" type="Const" version="opset1">
			<data element_type="i32" shape="" offset="4" size="4" />
			<output>
				<port id="0" precision="I32" />
			</output>
		</layer>
		<layer id="5" name="Constant_3205" type="Const" version="opset1">
			<data element_type="i32" shape="" offset="0" size="4" />
			<output>
				<port id="0" precision="I32" />
			</output>
		</layer>
		<layer id="6" name="map/while/loop_counter" type="Const" version="opset1">
			<data element_type="i32" shape="" offset="4" size="4" />
			<output>
				<port id="0" precision="I32" />
			</output>
		</layer>
		<layer id="7" name="map/Shape" type="ShapeOf" version="opset3">
			<data output_type="i32" />
			<input>
				<port id="0" precision="U8">
					<dim>-1</dim>
					<dim>-1</dim>
					<dim>-1</dim>
					<dim>3</dim>
				</port>
			</input>
			<output>
				<port id="1" precision="I32">
					<dim>4</dim>
				</port>
			</output>
		</layer>
		<layer id="8" name="map/strided_slice/stack" type="Const" version="opset1">
			<data element_type="i32" shape="1" offset="4" size="4" />
			<output>
				<port id="0" precision="I32">
					<dim>1</dim>
				</port>
			</output>
		</layer>
		<layer id="9" name="map/strided_slice/stack_1" type="Const" version="opset1">
			<data element_type="i32" shape="1" offset="8" size="4" />
			<output>
				<port id="0" precision="I32">
					<dim>1</dim>
				</port>
			</output>
		</layer>
		<layer id="10" name="map/strided_slice/stack_2" type="Const" version="opset1">
			<data element_type="i32" shape="1" offset="8" size="4" />
			<output>
				<port id="0" precision="I32">
					<dim>1</dim>
				</port>
			</output>
		</layer>
		<layer id="11" name="map/strided_slice" type="StridedSlice" version="opset1">
			<data begin_mask="0" end_mask="0" new_axis_mask="0" shrink_axis_mask="1" ellipsis_mask="0" />
			<input>
				<port id="0" precision="I32">
					<dim>4</dim>
				</port>
				<port id="1" precision="I32">
					<dim>1</dim>
				</port>
				<port id="2" precision="I32">
					<dim>1</dim>
				</port>
				<port id="3" precision="I32">
					<dim>1</dim>
				</port>
			</input>
			<output>
				<port id="4" precision="I32" />
			</output>
		</layer>
		<layer id="12" name="map/while/Less_1" type="Less" version="opset1">
			<data auto_broadcast="numpy" />
			<input>
				<port id="0" precision="I32" />
				<port id="1" precision="I32" />
			</input>
			<output>
				<port id="2" precision="BOOL" />
			</output>
		</layer>
		<layer id="13" name="map/Const" type="Const" version="opset1">
			<data element_type="i32" shape="" offset="4" size="4" />
			<output>
				<port id="0" precision="I32" />
			</output>
		</layer>
		<layer id="14" name="map/while/Less" type="Less" version="opset1">
			<data auto_broadcast="numpy" />
			<input>
				<port id="0" precision="I32" />
				<port id="1" precision="I32" />
			</input>
			<output>
				<port id="2" precision="BOOL" />
			</output>
		</layer>
		<layer id="15" name="map/while/LogicalAnd" type="LogicalAnd" version="opset1">
			<data auto_broadcast="numpy" />
			<input>
				<port id="0" precision="BOOL" />
				<port id="1" precision="BOOL" />
			</input>
			<output>
				<port id="2" precision="BOOL" />
			</output>
		</layer>
		<layer id="16" name="map/TensorArrayV2_1" type="Const" version="opset1">
			<data element_type="f32" shape="0, 0" offset="12" size="1" />
			<output>
				<port id="0" precision="FP32">
					<dim>0</dim>
					<dim>0</dim>
				</port>
			</output>
		</layer>
		<layer id="17" name="map/TensorArrayV2_2" type="Const" version="opset1">
			<data element_type="i32" shape="0, 0" offset="12" size="1" />
			<output>
				<port id="0" precision="I32">
					<dim>0</dim>
					<dim>0</dim>
				</port>
			</output>
		</layer>
		<layer id="18" name="map/while" type="Loop" version="opset5">
			<port_map>
				<input external_port_id="2" internal_layer_id="6" />
				<input external_port_id="3" internal_layer_id="5" />
				<input external_port_id="4" internal_layer_id="4" />
				<input external_port_id="5" internal_layer_id="3" />
				<input external_port_id="6" internal_layer_id="2" />
				<input external_port_id="7" internal_layer_id="1" />
				<input external_port_id="8" internal_layer_id="0" />
				<output external_port_id="9" internal_layer_id="88" />
				<output external_port_id="10" internal_layer_id="39" />
				<output external_port_id="-1" internal_layer_id="14" purpose="execution_condition" />
			</port_map>
			<back_edges>
				<edge from-layer="91" to-layer="6" />
				<edge from-layer="90" to-layer="5" />
				<edge from-layer="89" to-layer="4" />
				<edge from-layer="88" to-layer="3" />
				<edge from-layer="39" to-layer="2" />
				<edge from-layer="16" to-layer="1" />
				<edge from-layer="15" to-layer="0" />
			</back_edges>
			<input>
				<port id="0" precision="I32" />
				<port id="1" precision="BOOL" />
				<port id="2" precision="I32" />
				<port id="3" precision="I32" />
				<port id="4" precision="I32" />
				<port id="5" precision="FP32">
					<dim>0</dim>
					<dim>0</dim>
				</port>
				<port id="6" precision="I32">
					<dim>0</dim>
					<dim>0</dim>
				</port>
				<port id="7" precision="I32" />
				<port id="8" precision="U8">
					<dim>-1</dim>
					<dim>-1</dim>
					<dim>-1</dim>
					<dim>3</dim>
				</port>
			</input>
			<output>
				<port id="9" precision="FP32">
					<dim>-1</dim>
					<dim>3145728</dim>
				</port>
				<port id="10" precision="I32">
					<dim>-1</dim>
					<dim>3</dim>
				</port>
			</output>
			<body>
				<layers>
					<layer id="6" name="map_while_map_while_loop_counter" type="Parameter" version="opset1">
						<data shape="" element_type="i32" />
						<rt_info>
							<attribute name="fused_names" version="0" value="map_while_map_while_loop_counter" />
						</rt_info>
						<output>
							<port id="0" precision="I32" />
						</output>
					</layer>
					<layer id="5" name="map_while_map_strided_slice" type="Parameter" version="opset1">
						<data shape="" element_type="i32" />
						<rt_info>
							<attribute name="fused_names" version="0" value="map_while_map_strided_slice" />
						</rt_info>
						<output>
							<port id="0" precision="I32" />
						</output>
					</layer>
					<layer id="4" name="map_while_placeholder" type="Parameter" version="opset1">
						<data shape="" element_type="i32" />
						<rt_info>
							<attribute name="fused_names" version="0" value="map_while_placeholder" />
						</rt_info>
						<output>
							<port id="0" precision="I32" />
						</output>
					</layer>
					<layer id="3" name="map_while_placeholder_1" type="Parameter" version="opset1">
						<data shape="?,?" element_type="f32" />
						<rt_info>
							<attribute name="fused_names" version="0" value="map_while_placeholder_1" />
							<attribute name="old_api_map_element_type" version="0" value="f16" />
						</rt_info>
						<output>
							<port id="0" precision="FP32">
								<dim>-1</dim>
								<dim>-1</dim>
							</port>
						</output>
					</layer>
					<layer id="2" name="map_while_placeholder_2" type="Parameter" version="opset1">
						<data shape="?,?" element_type="i32" />
						<rt_info>
							<attribute name="fused_names" version="0" value="map_while_placeholder_2" />
						</rt_info>
						<output>
							<port id="0" precision="I32">
								<dim>-1</dim>
								<dim>-1</dim>
							</port>
						</output>
					</layer>
					<layer id="1" name="map_while_map_strided_slice_1_0" type="Parameter" version="opset1">
						<data shape="" element_type="i32" />
						<rt_info>
							<attribute name="fused_names" version="0" value="map_while_map_strided_slice_1_0" />
						</rt_info>
						<output>
							<port id="0" precision="I32" />
						</output>
					</layer>
					<layer id="0" name="map_while_tensorarrayv2read_tensorlistgetitem_map_tensorarrayunstack_tensorlistfromtensor_0" type="Parameter" version="opset1">
						<data shape="?,?,?,3" element_type="u8" />
						<rt_info>
							<attribute name="fused_names" version="0" value="map_while_tensorarrayv2read_tensorlistgetitem_map_tensorarrayunstack_tensorlistfromtensor_0" />
						</rt_info>
						<output>
							<port id="0" precision="U8">
								<dim>-1</dim>
								<dim>-1</dim>
								<dim>-1</dim>
								<dim>3</dim>
							</port>
						</output>
					</layer>
					<layer id="7" name="map/while/add_1/y" type="Const" version="opset1">
						<data element_type="i32" shape="" offset="8" size="4" />
						<rt_info>
							<attribute name="fused_names" version="0" value="map/while/add_1/y" />
						</rt_info>
						<output>
							<port id="0" precision="I32" />
						</output>
					</layer>
					<layer id="8" name="map/while/add_1" type="Add" version="opset1">
						<data auto_broadcast="numpy" />
						<rt_info>
							<attribute name="fused_names" version="0" value="map/while/add_1" />
						</rt_info>
						<input>
							<port id="0" precision="I32" />
							<port id="1" precision="I32" />
						</input>
						<output>
							<port id="2" precision="I32" />
						</output>
					</layer>
					<layer id="9" name="map/while/Less_1" type="Less" version="opset1">
						<data auto_broadcast="numpy" />
						<rt_info>
							<attribute name="fused_names" version="0" value="map/while/Less_1" />
						</rt_info>
						<input>
							<port id="0" precision="I32" />
							<port id="1" precision="I32" />
						</input>
						<output>
							<port id="2" precision="BOOL" />
						</output>
					</layer>
					<layer id="10" name="map/while/add/y" type="Const" version="opset1">
						<data element_type="i32" shape="" offset="8" size="4" />
						<rt_info>
							<attribute name="fused_names" version="0" value="map/while/add/y" />
						</rt_info>
						<output>
							<port id="0" precision="I32" />
						</output>
					</layer>
					<layer id="11" name="map/while/add" type="Add" version="opset1">
						<data auto_broadcast="numpy" />
						<rt_info>
							<attribute name="fused_names" version="0" value="map/while/add" />
						</rt_info>
						<input>
							<port id="0" precision="I32" />
							<port id="1" precision="I32" />
						</input>
						<output>
							<port id="2" precision="I32" />
						</output>
					</layer>
					<layer id="12" name="map/while/Less" type="Less" version="opset1">
						<data auto_broadcast="numpy" />
						<rt_info>
							<attribute name="fused_names" version="0" value="map/while/Less" />
						</rt_info>
						<input>
							<port id="0" precision="I32" />
							<port id="1" precision="I32" />
						</input>
						<output>
							<port id="2" precision="BOOL" />
						</output>
					</layer>
					<layer id="13" name="map/while/LogicalAnd" type="LogicalAnd" version="opset1">
						<data auto_broadcast="numpy" />
						<rt_info>
							<attribute name="fused_names" version="0" value="map/while/LogicalAnd" />
						</rt_info>
						<input>
							<port id="0" precision="BOOL" />
							<port id="1" precision="BOOL" />
						</input>
						<output>
							<port id="2" precision="BOOL" />
						</output>
					</layer>
					<layer id="17" name="Concat_2982" type="Const" version="opset1">
						<data element_type="i32" shape="2" offset="13" size="8" />
						<rt_info>
							<attribute name="fused_names" version="0" value="Concat_2982" />
						</rt_info>
						<output>
							<port id="0" precision="I32">
								<dim>2</dim>
							</port>
						</output>
					</layer>
					<layer id="18" name="Reshape_2983" type="Reshape" version="opset1">
						<data special_zero="false" />
						<rt_info>
							<attribute name="fused_names" version="0" value="Reshape_2983" />
						</rt_info>
						<input>
							<port id="0" precision="I32">
								<dim>-1</dim>
								<dim>-1</dim>
							</port>
							<port id="1" precision="I32">
								<dim>2</dim>
							</port>
						</input>
						<output>
							<port id="2" precision="I32">
								<dim>-1</dim>
								<dim>3</dim>
							</port>
						</output>
					</layer>
					<layer id="19" name="Reshape_2977" type="Const" version="opset1">
						<data element_type="i32" shape="3" offset="21" size="12" />
						<rt_info>
							<attribute name="fused_names" version="0" value="Reshape_2977" />
						</rt_info>
						<output>
							<port id="0" precision="I32">
								<dim>3</dim>
							</port>
						</output>
					</layer>
					<layer id="20" name="ConvertLike_2986" type="ConvertLike" version="opset1">
						<rt_info>
							<attribute name="fused_names" version="0" value="ConvertLike_2986" />
						</rt_info>
						<input>
							<port id="0" precision="I32">
								<dim>-1</dim>
								<dim>3</dim>
							</port>
							<port id="1" precision="I32">
								<dim>3</dim>
							</port>
						</input>
						<output>
							<port id="2" precision="I32">
								<dim>-1</dim>
								<dim>3</dim>
							</port>
						</output>
					</layer>
					<layer id="21" name="Constant_2996" type="Const" version="opset1">
						<data element_type="i32" shape="" offset="4" size="4" />
						<rt_info>
							<attribute name="fused_names" version="0" value="Constant_2996" />
						</rt_info>
						<output>
							<port id="0" precision="I32" />
						</output>
					</layer>
					<layer id="22" name="ShapeOf_2987" type="ShapeOf" version="opset3">
						<data output_type="i32" />
						<rt_info>
							<attribute name="fused_names" version="0" value="ShapeOf_2987" />
						</rt_info>
						<input>
							<port id="0" precision="I32">
								<dim>-1</dim>
								<dim>3</dim>
							</port>
						</input>
						<output>
							<port id="1" precision="I32">
								<dim>2</dim>
							</port>
						</output>
					</layer>
					<layer id="23" name="Constant_2988" type="Const" version="opset1">
						<data element_type="i32" shape="1" offset="4" size="4" />
						<rt_info>
							<attribute name="fused_names" version="0" value="Slice_2990" />
						</rt_info>
						<output>
							<port id="0" precision="I32">
								<dim>1</dim>
							</port>
						</output>
					</layer>
					<layer id="24" name="Constant_2989" type="Const" version="opset1">
						<data element_type="i32" shape="1" offset="8" size="4" />
						<rt_info>
							<attribute name="fused_names" version="0" value="Slice_2990" />
						</rt_info>
						<output>
							<port id="0" precision="I32">
								<dim>1</dim>
							</port>
						</output>
					</layer>
					<layer id="25" name="Slice_2990" type="StridedSlice" version="opset1">
						<data begin_mask="0" end_mask="0" new_axis_mask="" shrink_axis_mask="" ellipsis_mask="" />
						<rt_info>
							<attribute name="fused_names" version="0" value="Slice_2990" />
						</rt_info>
						<input>
							<port id="0" precision="I32">
								<dim>2</dim>
							</port>
							<port id="1" precision="I32">
								<dim>1</dim>
							</port>
							<port id="2" precision="I32">
								<dim>1</dim>
							</port>
							<port id="3" precision="I32">
								<dim>1</dim>
							</port>
						</input>
						<output>
							<port id="4" precision="I32">
								<dim>1</dim>
							</port>
						</output>
					</layer>
					<layer id="26" name="Squeeze_2975" type="Squeeze" version="opset1">
						<rt_info>
							<attribute name="fused_names" version="0" value="Squeeze_2975, Squeeze_3014, Squeeze_3036" />
						</rt_info>
						<input>
							<port id="0" precision="I32" />
						</input>
						<output>
							<port id="1" precision="I32" />
						</output>
					</layer>
					<layer id="27" name="Constant_2992" type="Const" version="opset1">
						<data element_type="i32" shape="1" offset="8" size="4" />
						<rt_info>
							<attribute name="fused_names" version="0" value="Constant_2992" />
						</rt_info>
						<output>
							<port id="0" precision="I32">
								<dim>1</dim>
							</port>
						</output>
					</layer>
					<layer id="28" name="Add_2993" type="Add" version="opset1">
						<data auto_broadcast="numpy" />
						<rt_info>
							<attribute name="fused_names" version="0" value="Add_2993" />
						</rt_info>
						<input>
							<port id="0" precision="I32" />
							<port id="1" precision="I32">
								<dim>1</dim>
							</port>
						</input>
						<output>
							<port id="2" precision="I32">
								<dim>1</dim>
							</port>
						</output>
					</layer>
					<layer id="29" name="Maximum_2994" type="Maximum" version="opset1">
						<data auto_broadcast="numpy" />
						<rt_info>
							<attribute name="fused_names" version="0" value="Maximum_2994" />
						</rt_info>
						<input>
							<port id="0" precision="I32">
								<dim>1</dim>
							</port>
							<port id="1" precision="I32">
								<dim>1</dim>
							</port>
						</input>
						<output>
							<port id="2" precision="I32">
								<dim>1</dim>
							</port>
						</output>
					</layer>
					<layer id="30" name="Subtract_2995" type="Subtract" version="opset1">
						<data auto_broadcast="numpy" />
						<rt_info>
							<attribute name="fused_names" version="0" value="Subtract_2995" />
						</rt_info>
						<input>
							<port id="0" precision="I32">
								<dim>1</dim>
							</port>
							<port id="1" precision="I32">
								<dim>1</dim>
							</port>
						</input>
						<output>
							<port id="2" precision="I32">
								<dim>1</dim>
							</port>
						</output>
					</layer>
					<layer id="31" name="ShapeOf_2980" type="Const" version="opset1">
						<data element_type="i32" shape="1" offset="33" size="4" />
						<rt_info>
							<attribute name="fused_names" version="0" value="ShapeOf_2980" />
						</rt_info>
						<output>
							<port id="0" precision="I32">
								<dim>1</dim>
							</port>
						</output>
					</layer>
					<layer id="32" name="Concat_2997" type="Concat" version="opset1">
						<data axis="0" />
						<rt_info>
							<attribute name="fused_names" version="0" value="Concat_2997" />
						</rt_info>
						<input>
							<port id="0" precision="I32">
								<dim>1</dim>
							</port>
							<port id="1" precision="I32">
								<dim>1</dim>
							</port>
						</input>
						<output>
							<port id="2" precision="I32">
								<dim>2</dim>
							</port>
						</output>
					</layer>
					<layer id="33" name="Broadcast_2998" type="Broadcast" version="opset3">
						<data mode="numpy" />
						<rt_info>
							<attribute name="fused_names" version="0" value="Broadcast_2998" />
						</rt_info>
						<input>
							<port id="0" precision="I32" />
							<port id="1" precision="I32">
								<dim>2</dim>
							</port>
						</input>
						<output>
							<port id="2" precision="I32">
								<dim>-1</dim>
								<dim>3</dim>
							</port>
						</output>
					</layer>
					<layer id="34" name="Concat_2999" type="Concat" version="opset1">
						<data axis="0" />
						<rt_info>
							<attribute name="fused_names" version="0" value="Concat_2999" />
						</rt_info>
						<input>
							<port id="0" precision="I32">
								<dim>-1</dim>
								<dim>3</dim>
							</port>
							<port id="1" precision="I32">
								<dim>-1</dim>
								<dim>3</dim>
							</port>
						</input>
						<output>
							<port id="2" precision="I32">
								<dim>-1</dim>
								<dim>3</dim>
							</port>
						</output>
					</layer>
					<layer id="35" name="Constant_3049" type="Const" version="opset1">
						<data element_type="i32" shape="1" offset="4" size="4" />
						<rt_info>
							<attribute name="fused_names" version="0" value="Slice_3051" />
						</rt_info>
						<output>
							<port id="0" precision="I32">
								<dim>1</dim>
							</port>
						</output>
					</layer>
					<layer id="36" name="Unsqueeze_3061" type="Unsqueeze" version="opset1">
						<rt_info>
							<attribute name="fused_names" version="0" value="Unsqueeze_3000, Unsqueeze_3061" />
						</rt_info>
						<input>
							<port id="0" precision="I32" />
							<port id="1" precision="I32">
								<dim>1</dim>
							</port>
						</input>
						<output>
							<port id="2" precision="I32">
								<dim>1</dim>
							</port>
						</output>
					</layer>
					<layer id="37" name="Unsqueeze_3001" type="Const" version="opset1">
						<data element_type="i32" shape="1, 3" offset="21" size="12" />
						<rt_info>
							<attribute name="fused_names" version="0" value="Unsqueeze_3001" />
						</rt_info>
						<output>
							<port id="0" precision="I32">
								<dim>1</dim>
								<dim>3</dim>
							</port>
						</output>
					</layer>
					<layer id="38" name="map/while/TensorArrayV2Write_1/TensorListSetItem" type="ScatterUpdate" version="opset3">
						<rt_info>
							<attribute name="fused_names" version="0" value="map/while/TensorArrayV2Write_1/TensorListSetItem" />
						</rt_info>
						<input>
							<port id="0" precision="I32">
								<dim>-1</dim>
								<dim>3</dim>
							</port>
							<port id="1" precision="I32">
								<dim>1</dim>
							</port>
							<port id="2" precision="I32">
								<dim>1</dim>
								<dim>3</dim>
							</port>
							<port id="3" precision="I32">
								<dim>1</dim>
							</port>
						</input>
						<output>
							<port id="4" precision="I32">
								<dim>-1</dim>
								<dim>3</dim>
							</port>
						</output>
					</layer>
					<layer id="40" name="Concat_3043" type="Const" version="opset1">
						<data element_type="i32" shape="2" offset="37" size="8" />
						<rt_info>
							<attribute name="fused_names" version="0" value="Concat_3043" />
						</rt_info>
						<output>
							<port id="0" precision="I32">
								<dim>2</dim>
							</port>
						</output>
					</layer>
					<layer id="41" name="Reshape_3044" type="Reshape" version="opset1">
						<data special_zero="false" />
						<rt_info>
							<attribute name="fused_names" version="0" value="Reshape_3044" />
						</rt_info>
						<input>
							<port id="0" precision="FP32">
								<dim>-1</dim>
								<dim>-1</dim>
							</port>
							<port id="1" precision="I32">
								<dim>2</dim>
							</port>
						</input>
						<output>
							<port id="2" precision="FP32">
								<dim>-1</dim>
								<dim>3145728</dim>
							</port>
						</output>
					</layer>
					<layer id="42" name="Constant_457740_compressed" type="Const" version="opset1">
						<data element_type="f16" shape="1, 1, 1, 1" offset="45" size="2" />
						<rt_info>
							<attribute name="fused_names" version="0" value="map/while/Preprocessor/mul/x" />
						</rt_info>
						<output>
							<port id="0" precision="FP16">
								<dim>1</dim>
								<dim>1</dim>
								<dim>1</dim>
								<dim>1</dim>
							</port>
						</output>
					</layer>
					<layer id="43" name="Constant_457740" type="Convert" version="opset1">
						<data destination_type="f32" />
						<rt_info>
							<attribute name="decompression" version="0" />
							<attribute name="fused_names" version="0" value="map/while/Preprocessor/mul/x" />
						</rt_info>
						<input>
							<port id="0" precision="FP16">
								<dim>1</dim>
								<dim>1</dim>
								<dim>1</dim>
								<dim>1</dim>
							</port>
						</input>
						<output>
							<port id="1" precision="FP32">
								<dim>1</dim>
								<dim>1</dim>
								<dim>1</dim>
								<dim>1</dim>
							</port>
						</output>
					</layer>
					<layer id="44" name="Constant_3015" type="Const" version="opset1">
						<data element_type="i32" shape="1" offset="4" size="4" />
						<rt_info>
							<attribute name="fused_names" version="0" value="Constant_3015" />
						</rt_info>
						<output>
							<port id="0" precision="I32">
								<dim>1</dim>
							</port>
						</output>
					</layer>
					<layer id="45" name="Gather_3016" type="Gather" version="opset8">
						<data batch_dims="0" />
						<rt_info>
							<attribute name="fused_names" version="0" value="Gather_3016, map/while/TensorArrayV2Read/TensorListGetItem" />
						</rt_info>
						<input>
							<port id="0" precision="U8">
								<dim>-1</dim>
								<dim>-1</dim>
								<dim>-1</dim>
								<dim>3</dim>
							</port>
							<port id="1" precision="I32" />
							<port id="2" precision="I32">
								<dim>1</dim>
							</port>
						</input>
						<output>
							<port id="3" precision="U8">
								<dim>-1</dim>
								<dim>-1</dim>
								<dim>3</dim>
							</port>
						</output>
					</layer>
					<layer id="46" name="map/while/Cast" type="Convert" version="opset1">
						<data destination_type="f32" />
						<rt_info>
							<attribute name="fused_names" version="0" value="map/while/Cast" />
						</rt_info>
						<input>
							<port id="0" precision="U8">
								<dim>-1</dim>
								<dim>-1</dim>
								<dim>3</dim>
							</port>
						</input>
						<output>
							<port id="1" precision="FP32">
								<dim>-1</dim>
								<dim>-1</dim>
								<dim>3</dim>
							</port>
						</output>
					</layer>
					<layer id="47" name="map/while/strided_slice/stack" type="Const" version="opset1">
						<data element_type="i32" shape="4" offset="47" size="16" />
						<rt_info>
							<attribute name="fused_names" version="0" value="map/while/strided_slice/stack" />
						</rt_info>
						<output>
							<port id="0" precision="I32">
								<dim>4</dim>
							</port>
						</output>
					</layer>
					<layer id="48" name="map/while/strided_slice/stack_1" type="Const" version="opset1">
						<data element_type="i32" shape="4" offset="47" size="16" />
						<rt_info>
							<attribute name="fused_names" version="0" value="map/while/strided_slice/stack_1" />
						</rt_info>
						<output>
							<port id="0" precision="I32">
								<dim>4</dim>
							</port>
						</output>
					</layer>
					<layer id="49" name="map/while/strided_slice/stack_2" type="Const" version="opset1">
						<data element_type="i32" shape="4" offset="63" size="16" />
						<rt_info>
							<attribute name="fused_names" version="0" value="map/while/strided_slice/stack_2" />
						</rt_info>
						<output>
							<port id="0" precision="I32">
								<dim>4</dim>
							</port>
						</output>
					</layer>
					<layer id="50" name="map/while/strided_slice" type="StridedSlice" version="opset1">
						<data begin_mask="0, 1, 1, 1" end_mask="0, 1, 1, 1" new_axis_mask="1, 0, 0, 0" shrink_axis_mask="0, 0, 0, 0" ellipsis_mask="0, 0, 0, 0" />
						<rt_info>
							<attribute name="fused_names" version="0" value="Split_3021, map/while/strided_slice" />
						</rt_info>
						<input>
							<port id="0" precision="FP32">
								<dim>-1</dim>
								<dim>-1</dim>
								<dim>3</dim>
							</port>
							<port id="1" precision="I32">
								<dim>4</dim>
							</port>
							<port id="2" precision="I32">
								<dim>4</dim>
							</port>
							<port id="3" precision="I32">
								<dim>4</dim>
							</port>
						</input>
						<output>
							<port id="4" precision="FP32">
								<dim>1</dim>
								<dim>-1</dim>
								<dim>-1</dim>
								<dim>3</dim>
							</port>
						</output>
					</layer>
					<layer id="51" name="Constant_3020" type="Const" version="opset1">
						<data element_type="i64" shape="" offset="79" size="8" />
						<rt_info>
							<attribute name="fused_names" version="0" value="Constant_3020" />
						</rt_info>
						<output>
							<port id="0" precision="I64" />
						</output>
					</layer>
					<layer id="52" name="Squeeze_3022" type="Squeeze" version="opset1">
						<rt_info>
							<attribute name="fused_names" version="0" value="Squeeze_3022" />
						</rt_info>
						<input>
							<port id="0" precision="FP32">
								<dim>1</dim>
								<dim>-1</dim>
								<dim>-1</dim>
								<dim>3</dim>
							</port>
							<port id="1" precision="I64" />
						</input>
						<output>
							<port id="2" precision="FP32">
								<dim>-1</dim>
								<dim>-1</dim>
								<dim>3</dim>
							</port>
						</output>
					</layer>
					<layer id="53" name="map/while/Preprocessor/ResizeImage/resize/ExpandDims/dim" type="Const" version="opset1">
						<data element_type="i32" shape="" offset="4" size="4" />
						<rt_info>
							<attribute name="fused_names" version="0" value="map/while/Preprocessor/ResizeImage/resize/ExpandDims/dim" />
						</rt_info>
						<output>
							<port id="0" precision="I32" />
						</output>
					</layer>
					<layer id="54" name="map/while/Preprocessor/ResizeImage/resize/ExpandDims" type="Unsqueeze" version="opset1">
						<rt_info>
							<attribute name="fused_names" version="0" value="Convert_3025, map/while/Preprocessor/ResizeImage/resize/ExpandDims" />
						</rt_info>
						<input>
							<port id="0" precision="FP32">
								<dim>-1</dim>
								<dim>-1</dim>
								<dim>3</dim>
							</port>
							<port id="1" precision="I32" />
						</input>
						<output>
							<port id="2" precision="FP32">
								<dim>1</dim>
								<dim>-1</dim>
								<dim>-1</dim>
								<dim>3</dim>
							</port>
						</output>
					</layer>
					<layer id="55" name="map/while/Preprocessor/ResizeImage/stack" type="Const" version="opset1">
						<data element_type="i32" shape="2" offset="87" size="8" />
						<rt_info>
							<attribute name="fused_names" version="0" value="map/while/Preprocessor/ResizeImage/stack" />
						</rt_info>
						<output>
							<port id="0" precision="I32">
								<dim>2</dim>
							</port>
						</output>
					</layer>
					<layer id="56" name="Constant_3024" type="Const" version="opset1">
						<data element_type="i32" shape="2" offset="95" size="8" />
						<rt_info>
							<attribute name="fused_names" version="0" value="Constant_3024" />
						</rt_info>
						<output>
							<port id="0" precision="I32">
								<dim>2</dim>
							</port>
						</output>
					</layer>
					<layer id="57" name="map/while/Preprocessor/ResizeImage/resize/ResizeBilinear" type="Interpolate" version="opset11">
						<data mode="linear_onnx" shape_calculation_mode="sizes" coordinate_transformation_mode="asymmetric" nearest_mode="round_prefer_floor" antialias="false" pads_begin="0, 0, 0, 0" pads_end="0, 0, 0, 0" cube_coeff="-0.75" />
						<rt_info>
							<attribute name="fused_names" version="0" value="map/while/Preprocessor/ResizeImage/resize/ResizeBilinear" />
						</rt_info>
						<input>
							<port id="0" precision="FP32">
								<dim>1</dim>
								<dim>-1</dim>
								<dim>-1</dim>
								<dim>3</dim>
							</port>
							<port id="1" precision="I32">
								<dim>2</dim>
							</port>
							<port id="2" precision="I32">
								<dim>2</dim>
							</port>
						</input>
						<output>
							<port id="3" precision="FP32">
								<dim>1</dim>
								<dim>1024</dim>
								<dim>1024</dim>
								<dim>3</dim>
							</port>
						</output>
					</layer>
					<layer id="58" name="Constant_3027" type="Const" version="opset1">
						<data element_type="i32" shape="1" offset="4" size="4" />
						<rt_info>
							<attribute name="fused_names" version="0" value="Constant_3027" />
						</rt_info>
						<output>
							<port id="0" precision="I32">
								<dim>1</dim>
							</port>
						</output>
					</layer>
					<layer id="59" name="map/while/Preprocessor/ResizeImage/resize/Squeeze" type="Squeeze" version="opset1">
						<rt_info>
							<attribute name="fused_names" version="0" value="map/while/Preprocessor/ResizeImage/resize/Squeeze" />
						</rt_info>
						<input>
							<port id="0" precision="FP32">
								<dim>1</dim>
								<dim>1024</dim>
								<dim>1024</dim>
								<dim>3</dim>
							</port>
							<port id="1" precision="I32">
								<dim>1</dim>
							</port>
						</input>
						<output>
							<port id="2" precision="FP32">
								<dim>1024</dim>
								<dim>1024</dim>
								<dim>3</dim>
							</port>
						</output>
					</layer>
					<layer id="60" name="Constant_3029" type="Const" version="opset1">
						<data element_type="i64" shape="" offset="79" size="8" />
						<rt_info>
							<attribute name="fused_names" version="0" value="Constant_3029" />
						</rt_info>
						<output>
							<port id="0" precision="I64" />
						</output>
					</layer>
					<layer id="61" name="Unsqueeze_3030" type="Unsqueeze" version="opset1">
						<rt_info>
							<attribute name="fused_names" version="0" value="Unsqueeze_3030, map/while/Preprocessor/stack" />
						</rt_info>
						<input>
							<port id="0" precision="FP32">
								<dim>1024</dim>
								<dim>1024</dim>
								<dim>3</dim>
							</port>
							<port id="1" precision="I64" />
						</input>
						<output>
							<port id="2" precision="FP32">
								<dim>1</dim>
								<dim>1024</dim>
								<dim>1024</dim>
								<dim>3</dim>
							</port>
						</output>
					</layer>
					<layer id="62" name="map/while/Preprocessor/mul" type="Multiply" version="opset1">
						<data auto_broadcast="numpy" />
						<rt_info>
							<attribute name="fused_names" version="0" value="map/while/Preprocessor/mul" />
						</rt_info>
						<input>
							<port id="0" precision="FP32">
								<dim>1</dim>
								<dim>1</dim>
								<dim>1</dim>
								<dim>1</dim>
							</port>
							<port id="1" precision="FP32">
								<dim>1</dim>
								<dim>1024</dim>
								<dim>1024</dim>
								<dim>3</dim>
							</port>
						</input>
						<output>
							<port id="2" precision="FP32">
								<dim>1</dim>
								<dim>1024</dim>
								<dim>1024</dim>
								<dim>3</dim>
							</port>
						</output>
					</layer>
					<layer id="63" name="Constant_457741_compressed" type="Const" version="opset1">
						<data element_type="f16" shape="1, 1, 1, 1" offset="103" size="2" />
						<rt_info>
							<attribute name="fused_names" version="0" value="map/while/Preprocessor/sub, map/while/Preprocessor/sub/y" />
						</rt_info>
						<output>
							<port id="0" precision="FP16">
								<dim>1</dim>
								<dim>1</dim>
								<dim>1</dim>
								<dim>1</dim>
							</port>
						</output>
					</layer>
					<layer id="64" name="Constant_457741" type="Convert" version="opset1">
						<data destination_type="f32" />
						<rt_info>
							<attribute name="decompression" version="0" />
							<attribute name="fused_names" version="0" value="map/while/Preprocessor/sub, map/while/Preprocessor/sub/y" />
						</rt_info>
						<input>
							<port id="0" precision="FP16">
								<dim>1</dim>
								<dim>1</dim>
								<dim>1</dim>
								<dim>1</dim>
							</port>
						</input>
						<output>
							<port id="1" precision="FP32">
								<dim>1</dim>
								<dim>1</dim>
								<dim>1</dim>
								<dim>1</dim>
							</port>
						</output>
					</layer>
					<layer id="65" name="map/while/Preprocessor/sub" type="Add" version="opset1">
						<data auto_broadcast="numpy" />
						<rt_info>
							<attribute name="fused_names" version="0" value="map/while/Preprocessor/sub, map/while/Preprocessor/sub/y" />
						</rt_info>
						<input>
							<port id="0" precision="FP32">
								<dim>1</dim>
								<dim>1024</dim>
								<dim>1024</dim>
								<dim>3</dim>
							</port>
							<port id="1" precision="FP32">
								<dim>1</dim>
								<dim>1</dim>
								<dim>1</dim>
								<dim>1</dim>
							</port>
						</input>
						<output>
							<port id="2" precision="FP32">
								<dim>1</dim>
								<dim>1024</dim>
								<dim>1024</dim>
								<dim>3</dim>
							</port>
						</output>
					</layer>
					<layer id="66" name="map/while/strided_slice_1/stack" type="Const" version="opset1">
						<data element_type="i32" shape="1" offset="4" size="4" />
						<rt_info>
							<attribute name="fused_names" version="0" value="map/while/strided_slice_1/stack" />
						</rt_info>
						<output>
							<port id="0" precision="I32">
								<dim>1</dim>
							</port>
						</output>
					</layer>
					<layer id="67" name="map/while/strided_slice_1/stack_1" type="Const" version="opset1">
						<data element_type="i32" shape="1" offset="8" size="4" />
						<rt_info>
							<attribute name="fused_names" version="0" value="map/while/strided_slice_1/stack_1" />
						</rt_info>
						<output>
							<port id="0" precision="I32">
								<dim>1</dim>
							</port>
						</output>
					</layer>
					<layer id="68" name="map/while/strided_slice_1/stack_2" type="Const" version="opset1">
						<data element_type="i32" shape="1" offset="8" size="4" />
						<rt_info>
							<attribute name="fused_names" version="0" value="map/while/strided_slice_1/stack_2" />
						</rt_info>
						<output>
							<port id="0" precision="I32">
								<dim>1</dim>
							</port>
						</output>
					</layer>
					<layer id="69" name="map/while/strided_slice_1" type="StridedSlice" version="opset1">
						<data begin_mask="0" end_mask="0" new_axis_mask="0" shrink_axis_mask="1" ellipsis_mask="0" />
						<rt_info>
							<attribute name="fused_names" version="0" value="map/while/strided_slice_1" />
						</rt_info>
						<input>
							<port id="0" precision="FP32">
								<dim>1</dim>
								<dim>1024</dim>
								<dim>1024</dim>
								<dim>3</dim>
							</port>
							<port id="1" precision="I32">
								<dim>1</dim>
							</port>
							<port id="2" precision="I32">
								<dim>1</dim>
							</port>
							<port id="3" precision="I32">
								<dim>1</dim>
							</port>
						</input>
						<output>
							<port id="4" precision="FP32">
								<dim>1024</dim>
								<dim>1024</dim>
								<dim>3</dim>
							</port>
						</output>
					</layer>
					<layer id="70" name="Constant_357666" type="Const" version="opset1">
						<data element_type="i64" shape="1" offset="105" size="8" />
						<rt_info>
							<attribute name="fused_names" version="0" value="Constant_357666" />
						</rt_info>
						<output>
							<port id="0" precision="I64">
								<dim>1</dim>
							</port>
						</output>
					</layer>
					<layer id="71" name="Reshape_3038" type="Reshape" version="opset1">
						<data special_zero="false" />
						<rt_info>
							<attribute name="fused_names" version="0" value="Reshape_3038" />
						</rt_info>
						<input>
							<port id="0" precision="FP32">
								<dim>1024</dim>
								<dim>1024</dim>
								<dim>3</dim>
							</port>
							<port id="1" precision="I64">
								<dim>1</dim>
							</port>
						</input>
						<output>
							<port id="2" precision="FP32">
								<dim>3145728</dim>
							</port>
						</output>
					</layer>
					<layer id="72" name="ConvertLike_3047" type="ConvertLike" version="opset1">
						<rt_info>
							<attribute name="fused_names" version="0" value="ConvertLike_3047" />
						</rt_info>
						<input>
							<port id="0" precision="FP32">
								<dim>-1</dim>
								<dim>3145728</dim>
							</port>
							<port id="1" precision="FP32">
								<dim>3145728</dim>
							</port>
						</input>
						<output>
							<port id="2" precision="FP32">
								<dim>-1</dim>
								<dim>3145728</dim>
							</port>
						</output>
					</layer>
					<layer id="73" name="Constant_3057_compressed" type="Const" version="opset1">
						<data element_type="f16" shape="" offset="113" size="2" />
						<rt_info>
							<attribute name="fused_names" version="0" value="Constant_3057" />
						</rt_info>
						<output>
							<port id="0" precision="FP16" />
						</output>
					</layer>
					<layer id="74" name="Constant_3057" type="Convert" version="opset1">
						<data destination_type="f32" />
						<rt_info>
							<attribute name="decompression" version="0" />
							<attribute name="fused_names" version="0" value="Constant_3057" />
						</rt_info>
						<input>
							<port id="0" precision="FP16" />
						</input>
						<output>
							<port id="1" precision="FP32" />
						</output>
					</layer>
					<layer id="75" name="ShapeOf_3048" type="ShapeOf" version="opset3">
						<data output_type="i32" />
						<rt_info>
							<attribute name="fused_names" version="0" value="ShapeOf_3048" />
						</rt_info>
						<input>
							<port id="0" precision="FP32">
								<dim>-1</dim>
								<dim>3145728</dim>
							</port>
						</input>
						<output>
							<port id="1" precision="I32">
								<dim>2</dim>
							</port>
						</output>
					</layer>
					<layer id="76" name="Constant_3050" type="Const" version="opset1">
						<data element_type="i32" shape="1" offset="8" size="4" />
						<rt_info>
							<attribute name="fused_names" version="0" value="Slice_3051" />
						</rt_info>
						<output>
							<port id="0" precision="I32">
								<dim>1</dim>
							</port>
						</output>
					</layer>
					<layer id="77" name="Slice_3051" type="StridedSlice" version="opset1">
						<data begin_mask="0" end_mask="0" new_axis_mask="" shrink_axis_mask="" ellipsis_mask="" />
						<rt_info>
							<attribute name="fused_names" version="0" value="Slice_3051" />
						</rt_info>
						<input>
							<port id="0" precision="I32">
								<dim>2</dim>
							</port>
							<port id="1" precision="I32">
								<dim>1</dim>
							</port>
							<port id="2" precision="I32">
								<dim>1</dim>
							</port>
							<port id="3" precision="I32">
								<dim>1</dim>
							</port>
						</input>
						<output>
							<port id="4" precision="I32">
								<dim>1</dim>
							</port>
						</output>
					</layer>
					<layer id="78" name="Constant_3053" type="Const" version="opset1">
						<data element_type="i32" shape="1" offset="8" size="4" />
						<rt_info>
							<attribute name="fused_names" version="0" value="Constant_3053" />
						</rt_info>
						<output>
							<port id="0" precision="I32">
								<dim>1</dim>
							</port>
						</output>
					</layer>
					<layer id="79" name="Add_3054" type="Add" version="opset1">
						<data auto_broadcast="numpy" />
						<rt_info>
							<attribute name="fused_names" version="0" value="Add_3054" />
						</rt_info>
						<input>
							<port id="0" precision="I32" />
							<port id="1" precision="I32">
								<dim>1</dim>
							</port>
						</input>
						<output>
							<port id="2" precision="I32">
								<dim>1</dim>
							</port>
						</output>
					</layer>
					<layer id="80" name="Maximum_3055" type="Maximum" version="opset1">
						<data auto_broadcast="numpy" />
						<rt_info>
							<attribute name="fused_names" version="0" value="Maximum_3055" />
						</rt_info>
						<input>
							<port id="0" precision="I32">
								<dim>1</dim>
							</port>
							<port id="1" precision="I32">
								<dim>1</dim>
							</port>
						</input>
						<output>
							<port id="2" precision="I32">
								<dim>1</dim>
							</port>
						</output>
					</layer>
					<layer id="81" name="Subtract_3056" type="Subtract" version="opset1">
						<data auto_broadcast="numpy" />
						<rt_info>
							<attribute name="fused_names" version="0" value="Subtract_3056" />
						</rt_info>
						<input>
							<port id="0" precision="I32">
								<dim>1</dim>
							</port>
							<port id="1" precision="I32">
								<dim>1</dim>
							</port>
						</input>
						<output>
							<port id="2" precision="I32">
								<dim>1</dim>
							</port>
						</output>
					</layer>
					<layer id="82" name="ShapeOf_3041" type="Const" version="opset1">
						<data element_type="i32" shape="1" offset="115" size="4" />
						<rt_info>
							<attribute name="fused_names" version="0" value="ShapeOf_3041" />
						</rt_info>
						<output>
							<port id="0" precision="I32">
								<dim>1</dim>
							</port>
						</output>
					</layer>
					<layer id="83" name="Concat_3058" type="Concat" version="opset1">
						<data axis="0" />
						<rt_info>
							<attribute name="fused_names" version="0" value="Concat_3058" />
						</rt_info>
						<input>
							<port id="0" precision="I32">
								<dim>1</dim>
							</port>
							<port id="1" precision="I32">
								<dim>1</dim>
							</port>
						</input>
						<output>
							<port id="2" precision="I32">
								<dim>2</dim>
							</port>
						</output>
					</layer>
					<layer id="84" name="Broadcast_3059" type="Broadcast" version="opset3">
						<data mode="numpy" />
						<rt_info>
							<attribute name="fused_names" version="0" value="Broadcast_3059" />
						</rt_info>
						<input>
							<port id="0" precision="FP32" />
							<port id="1" precision="I32">
								<dim>2</dim>
							</port>
						</input>
						<output>
							<port id="2" precision="FP32">
								<dim>-1</dim>
								<dim>3145728</dim>
							</port>
						</output>
					</layer>
					<layer id="85" name="Concat_3060" type="Concat" version="opset1">
						<data axis="0" />
						<rt_info>
							<attribute name="fused_names" version="0" value="Concat_3060" />
						</rt_info>
						<input>
							<port id="0" precision="FP32">
								<dim>-1</dim>
								<dim>3145728</dim>
							</port>
							<port id="1" precision="FP32">
								<dim>-1</dim>
								<dim>3145728</dim>
							</port>
						</input>
						<output>
							<port id="2" precision="FP32">
								<dim>-1</dim>
								<dim>3145728</dim>
							</port>
						</output>
					</layer>
					<layer id="86" name="Unsqueeze_3062" type="Unsqueeze" version="opset1">
						<rt_info>
							<attribute name="fused_names" version="0" value="Unsqueeze_3062" />
						</rt_info>
						<input>
							<port id="0" precision="FP32">
								<dim>3145728</dim>
							</port>
							<port id="1" precision="I32">
								<dim>1</dim>
							</port>
						</input>
						<output>
							<port id="2" precision="FP32">
								<dim>1</dim>
								<dim>3145728</dim>
							</port>
						</output>
					</layer>
					<layer id="87" name="map/while/TensorArrayV2Write/TensorListSetItem" type="ScatterUpdate" version="opset3">
						<rt_info>
							<attribute name="fused_names" version="0" value="map/while/TensorArrayV2Write/TensorListSetItem" />
						</rt_info>
						<input>
							<port id="0" precision="FP32">
								<dim>-1</dim>
								<dim>3145728</dim>
							</port>
							<port id="1" precision="I32">
								<dim>1</dim>
							</port>
							<port id="2" precision="FP32">
								<dim>1</dim>
								<dim>3145728</dim>
							</port>
							<port id="3" precision="I32">
								<dim>1</dim>
							</port>
						</input>
						<output>
							<port id="4" precision="FP32">
								<dim>-1</dim>
								<dim>3145728</dim>
							</port>
						</output>
					</layer>
					<layer id="91" name="map_while_identity" type="Result" version="opset1">
						<rt_info>
							<attribute name="fused_names" version="0" value="map_while_identity" />
						</rt_info>
						<input>
							<port id="0" precision="I32" />
						</input>
					</layer>
					<layer id="90" name="map_while_identity_1" type="Result" version="opset1">
						<rt_info>
							<attribute name="fused_names" version="0" value="map_while_identity_1" />
						</rt_info>
						<input>
							<port id="0" precision="I32" />
						</input>
					</layer>
					<layer id="89" name="map_while_identity_2" type="Result" version="opset1">
						<rt_info>
							<attribute name="fused_names" version="0" value="map_while_identity_2" />
						</rt_info>
						<input>
							<port id="0" precision="I32" />
						</input>
					</layer>
					<layer id="88" name="map_while_identity_3" type="Result" version="opset1">
						<rt_info>
							<attribute name="fused_names" version="0" value="map_while_identity_3" />
						</rt_info>
						<input>
							<port id="0" precision="FP32">
								<dim>-1</dim>
								<dim>3145728</dim>
							</port>
						</input>
					</layer>
					<layer id="39" name="map_while_identity_4" type="Result" version="opset1">
						<rt_info>
							<attribute name="fused_names" version="0" value="map_while_identity_4" />
						</rt_info>
						<input>
							<port id="0" precision="I32">
								<dim>-1</dim>
								<dim>3</dim>
							</port>
						</input>
					</layer>
					<layer id="16" name="map_while_map_strided_slice_1" type="Result" version="opset1">
						<rt_info>
							<attribute name="fused_names" version="0" value="map_while_map_strided_slice_1" />
						</rt_info>
						<input>
							<port id="0" precision="I32" />
						</input>
					</layer>
					<layer id="15" name="map_while_tensorarrayv2read_tensorlistgetitem_map_tensorarrayunstack_tensorlistfromtensor" type="Result" version="opset1">
						<rt_info>
							<attribute name="fused_names" version="0" value="map_while_tensorarrayv2read_tensorlistgetitem_map_tensorarrayunstack_tensorlistfromtensor" />
						</rt_info>
						<input>
							<port id="0" precision="U8">
								<dim>-1</dim>
								<dim>-1</dim>
								<dim>-1</dim>
								<dim>3</dim>
							</port>
						</input>
					</layer>
					<layer id="14" name="map_while_identity0" type="Result" version="opset1">
						<rt_info>
							<attribute name="fused_names" version="0" value="map_while_identity" />
						</rt_info>
						<input>
							<port id="0" precision="BOOL" />
						</input>
					</layer>
				</layers>
				<edges>
					<edge from-layer="0" from-port="0" to-layer="45" to-port="0" />
					<edge from-layer="0" from-port="0" to-layer="15" to-port="0" />
					<edge from-layer="1" from-port="0" to-layer="12" to-port="1" />
					<edge from-layer="1" from-port="0" to-layer="16" to-port="0" />
					<edge from-layer="2" from-port="0" to-layer="18" to-port="0" />
					<edge from-layer="3" from-port="0" to-layer="41" to-port="0" />
					<edge from-layer="4" from-port="0" to-layer="11" to-port="0" />
					<edge from-layer="4" from-port="0" to-layer="26" to-port="0" />
					<edge from-layer="5" from-port="0" to-layer="9" to-port="1" />
					<edge from-layer="5" from-port="0" to-layer="90" to-port="0" />
					<edge from-layer="6" from-port="0" to-layer="8" to-port="0" />
					<edge from-layer="7" from-port="0" to-layer="8" to-port="1" />
					<edge from-layer="8" from-port="2" to-layer="91" to-port="0" />
					<edge from-layer="8" from-port="2" to-layer="9" to-port="0" />
					<edge from-layer="9" from-port="2" to-layer="13" to-port="0" />
					<edge from-layer="10" from-port="0" to-layer="11" to-port="1" />
					<edge from-layer="11" from-port="2" to-layer="89" to-port="0" />
					<edge from-layer="11" from-port="2" to-layer="12" to-port="0" />
					<edge from-layer="12" from-port="2" to-layer="13" to-port="1" />
					<edge from-layer="13" from-port="2" to-layer="14" to-port="0" />
					<edge from-layer="17" from-port="0" to-layer="18" to-port="1" />
					<edge from-layer="18" from-port="2" to-layer="20" to-port="0" />
					<edge from-layer="19" from-port="0" to-layer="20" to-port="1" />
					<edge from-layer="20" from-port="2" to-layer="22" to-port="0" />
					<edge from-layer="20" from-port="2" to-layer="34" to-port="0" />
					<edge from-layer="21" from-port="0" to-layer="33" to-port="0" />
					<edge from-layer="22" from-port="1" to-layer="25" to-port="0" />
					<edge from-layer="23" from-port="0" to-layer="25" to-port="1" />
					<edge from-layer="23" from-port="0" to-layer="38" to-port="3" />
					<edge from-layer="24" from-port="0" to-layer="25" to-port="2" />
					<edge from-layer="24" from-port="0" to-layer="25" to-port="3" />
					<edge from-layer="25" from-port="4" to-layer="30" to-port="1" />
					<edge from-layer="25" from-port="4" to-layer="29" to-port="0" />
					<edge from-layer="26" from-port="1" to-layer="28" to-port="0" />
					<edge from-layer="26" from-port="1" to-layer="36" to-port="0" />
					<edge from-layer="26" from-port="1" to-layer="79" to-port="0" />
					<edge from-layer="26" from-port="1" to-layer="45" to-port="1" />
					<edge from-layer="27" from-port="0" to-layer="28" to-port="1" />
					<edge from-layer="28" from-port="2" to-layer="29" to-port="1" />
					<edge from-layer="29" from-port="2" to-layer="30" to-port="0" />
					<edge from-layer="30" from-port="2" to-layer="32" to-port="0" />
					<edge from-layer="31" from-port="0" to-layer="32" to-port="1" />
					<edge from-layer="32" from-port="2" to-layer="33" to-port="1" />
					<edge from-layer="33" from-port="2" to-layer="34" to-port="1" />
					<edge from-layer="34" from-port="2" to-layer="38" to-port="0" />
					<edge from-layer="35" from-port="0" to-layer="87" to-port="3" />
					<edge from-layer="35" from-port="0" to-layer="86" to-port="1" />
					<edge from-layer="35" from-port="0" to-layer="36" to-port="1" />
					<edge from-layer="35" from-port="0" to-layer="77" to-port="1" />
					<edge from-layer="36" from-port="2" to-layer="38" to-port="1" />
					<edge from-layer="36" from-port="2" to-layer="87" to-port="1" />
					<edge from-layer="37" from-port="0" to-layer="38" to-port="2" />
					<edge from-layer="38" from-port="4" to-layer="39" to-port="0" />
					<edge from-layer="40" from-port="0" to-layer="41" to-port="1" />
					<edge from-layer="41" from-port="2" to-layer="72" to-port="0" />
					<edge from-layer="42" from-port="0" to-layer="43" to-port="0" />
					<edge from-layer="43" from-port="1" to-layer="62" to-port="0" />
					<edge from-layer="44" from-port="0" to-layer="45" to-port="2" />
					<edge from-layer="45" from-port="3" to-layer="46" to-port="0" />
					<edge from-layer="46" from-port="1" to-layer="50" to-port="0" />
					<edge from-layer="47" from-port="0" to-layer="50" to-port="1" />
					<edge from-layer="48" from-port="0" to-layer="50" to-port="2" />
					<edge from-layer="49" from-port="0" to-layer="50" to-port="3" />
					<edge from-layer="50" from-port="4" to-layer="52" to-port="0" />
					<edge from-layer="51" from-port="0" to-layer="52" to-port="1" />
					<edge from-layer="52" from-port="2" to-layer="54" to-port="0" />
					<edge from-layer="53" from-port="0" to-layer="54" to-port="1" />
					<edge from-layer="54" from-port="2" to-layer="57" to-port="0" />
					<edge from-layer="55" from-port="0" to-layer="57" to-port="1" />
					<edge from-layer="56" from-port="0" to-layer="57" to-port="2" />
					<edge from-layer="57" from-port="3" to-layer="59" to-port="0" />
					<edge from-layer="58" from-port="0" to-layer="59" to-port="1" />
					<edge from-layer="59" from-port="2" to-layer="61" to-port="0" />
					<edge from-layer="60" from-port="0" to-layer="61" to-port="1" />
					<edge from-layer="61" from-port="2" to-layer="62" to-port="1" />
					<edge from-layer="62" from-port="2" to-layer="65" to-port="0" />
					<edge from-layer="63" from-port="0" to-layer="64" to-port="0" />
					<edge from-layer="64" from-port="1" to-layer="65" to-port="1" />
					<edge from-layer="65" from-port="2" to-layer="69" to-port="0" />
					<edge from-layer="66" from-port="0" to-layer="69" to-port="1" />
					<edge from-layer="67" from-port="0" to-layer="69" to-port="2" />
					<edge from-layer="68" from-port="0" to-layer="69" to-port="3" />
					<edge from-layer="69" from-port="4" to-layer="71" to-port="0" />
					<edge from-layer="70" from-port="0" to-layer="71" to-port="1" />
					<edge from-layer="71" from-port="2" to-layer="72" to-port="1" />
					<edge from-layer="71" from-port="2" to-layer="86" to-port="0" />
					<edge from-layer="72" from-port="2" to-layer="75" to-port="0" />
					<edge from-layer="72" from-port="2" to-layer="85" to-port="0" />
					<edge from-layer="73" from-port="0" to-layer="74" to-port="0" />
					<edge from-layer="74" from-port="1" to-layer="84" to-port="0" />
					<edge from-layer="75" from-port="1" to-layer="77" to-port="0" />
					<edge from-layer="76" from-port="0" to-layer="77" to-port="2" />
					<edge from-layer="76" from-port="0" to-layer="77" to-port="3" />
					<edge from-layer="77" from-port="4" to-layer="80" to-port="0" />
					<edge from-layer="77" from-port="4" to-layer="81" to-port="1" />
					<edge from-layer="78" from-port="0" to-layer="79" to-port="1" />
					<edge from-layer="79" from-port="2" to-layer="80" to-port="1" />
					<edge from-layer="80" from-port="2" to-layer="81" to-port="0" />
					<edge from-layer="81" from-port="2" to-layer="83" to-port="0" />
					<edge from-layer="82" from-port="0" to-layer="83" to-port="1" />
					<edge from-layer="83" from-port="2" to-layer="84" to-port="1" />
					<edge from-layer="84" from-port="2" to-layer="85" to-port="1" />
					<edge from-layer="85" from-port="2" to-layer="87" to-port="0" />
					<edge from-layer="86" from-port="2" to-layer="87" to-port="2" />
					<edge from-layer="87" from-port="4" to-layer="88" to-port="0" />
				</edges>
				<rt_info />
			</body>
		</layer>
		<layer id="19" name="ShapeOf_3371" type="ShapeOf" version="opset3">
			<data output_type="i32" />
			<input>
				<port id="0" precision="FP32">
					<dim>-1</dim>
					<dim>3145728</dim>
				</port>
			</input>
			<output>
				<port id="1" precision="I32">
					<dim>2</dim>
				</port>
			</output>
		</layer>
		<layer id="20" name="Constant_3372" type="Const" version="opset1">
			<data element_type="i32" shape="1" offset="4" size="4" />
			<output>
				<port id="0" precision="I32">
					<dim>1</dim>
				</port>
			</output>
		</layer>
		<layer id="21" name="Constant_3373" type="Const" version="opset1">
			<data element_type="i32" shape="1" offset="8" size="4" />
			<output>
				<port id="0" precision="I32">
					<dim>1</dim>
				</port>
			</output>
		</layer>
		<layer id="22" name="Slice_3374" type="StridedSlice" version="opset1">
			<data begin_mask="0" end_mask="0" new_axis_mask="" shrink_axis_mask="" ellipsis_mask="" />
			<input>
				<port id="0" precision="I32">
					<dim>2</dim>
				</port>
				<port id="1" precision="I32">
					<dim>1</dim>
				</port>
				<port id="2" precision="I32">
					<dim>1</dim>
				</port>
				<port id="3" precision="I32">
					<dim>1</dim>
				</port>
			</input>
			<output>
				<port id="4" precision="I32">
					<dim>1</dim>
				</port>
			</output>
		</layer>
		<layer id="23" name="map/TensorArrayV2Stack/TensorListStack/element_shape" type="Const" version="opset1">
			<data element_type="i32" shape="3" offset="21" size="12" />
			<output>
				<port id="0" precision="I32">
					<dim>3</dim>
				</port>
			</output>
		</layer>
		<layer id="24" name="Concat_3376" type="Concat" version="opset1">
			<data axis="0" />
			<input>
				<port id="0" precision="I32">
					<dim>1</dim>
				</port>
				<port id="1" precision="I32">
					<dim>3</dim>
				</port>
			</input>
			<output>
				<port id="2" precision="I32">
					<dim>4</dim>
				</port>
			</output>
		</layer>
		<layer id="25" name="map/TensorArrayV2Stack/TensorListStack" type="Reshape" version="opset1">
			<data special_zero="false" />
			<input>
				<port id="0" precision="FP32">
					<dim>-1</dim>
					<dim>3145728</dim>
				</port>
				<port id="1" precision="I32">
					<dim>4</dim>
				</port>
			</input>
			<output>
				<port id="2" precision="FP32">
					<dim>-1</dim>
					<dim>1024</dim>
					<dim>1024</dim>
					<dim>3</dim>
				</port>
			</output>
		</layer>
		<layer id="26" name="Constant_3384" type="Const" version="opset1">
			<data element_type="i64" shape="4" offset="119" size="32" />
			<output>
				<port id="0" precision="I64">
					<dim>4</dim>
				</port>
			</output>
		</layer>
		<layer id="27" name="Transpose_3385" type="Transpose" version="opset1">
			<input>
				<port id="0" precision="FP32">
					<dim>-1</dim>
					<dim>1024</dim>
					<dim>1024</dim>
					<dim>3</dim>
				</port>
				<port id="1" precision="I64">
					<dim>4</dim>
				</port>
			</input>
			<output>
				<port id="2" precision="FP32">
					<dim>-1</dim>
					<dim>3</dim>
					<dim>1024</dim>
					<dim>1024</dim>
				</port>
			</output>
		</layer>
		<layer id="28" name="Multiply_442321_compressed" type="Const" version="opset1">
			<data element_type="f16" shape="32, 3, 3, 3" offset="151" size="1728" />
			<output>
				<port id="0" precision="FP16">
					<dim>32</dim>
					<dim>3</dim>
					<dim>3</dim>
					<dim>3</dim>
				</port>
			</output>
		</layer>
		<layer id="29" name="Multiply_442321" type="Convert" version="opset1">
			<data destination_type="f32" />
			<rt_info>
				<attribute name="decompression" version="0" />
			</rt_info>
			<input>
				<port id="0" precision="FP16">
					<dim>32</dim>
					<dim>3</dim>
					<dim>3</dim>
					<dim>3</dim>
				</port>
			</input>
			<output>
				<port id="1" precision="FP32">
					<dim>32</dim>
					<dim>3</dim>
					<dim>3</dim>
					<dim>3</dim>
				</port>
			</output>
		</layer>
		<layer id="30" name="Multiply_441019" type="Convolution" version="opset1">
			<data strides="2, 2" dilations="1, 1" pads_begin="0, 0" pads_end="0, 0" auto_pad="same_upper" />
			<input>
				<port id="0" precision="FP32">
					<dim>-1</dim>
					<dim>3</dim>
					<dim>1024</dim>
					<dim>1024</dim>
				</port>
				<port id="1" precision="FP32">
					<dim>32</dim>
					<dim>3</dim>
					<dim>3</dim>
					<dim>3</dim>
				</port>
			</input>
			<output>
				<port id="2" precision="FP32">
					<dim>-1</dim>
					<dim>32</dim>
					<dim>512</dim>
					<dim>512</dim>
				</port>
			</output>
		</layer>
		<layer id="31" name="Constant_441024_compressed" type="Const" version="opset1">
			<data element_type="f16" shape="1, 32, 1, 1" offset="1879" size="64" />
			<output>
				<port id="0" precision="FP16">
					<dim>1</dim>
					<dim>32</dim>
					<dim>1</dim>
					<dim>1</dim>
				</port>
			</output>
		</layer>
		<layer id="32" name="Constant_441024" type="Convert" version="opset1">
			<data destination_type="f32" />
			<rt_info>
				<attribute name="decompression" version="0" />
			</rt_info>
			<input>
				<port id="0" precision="FP16">
					<dim>1</dim>
					<dim>32</dim>
					<dim>1</dim>
					<dim>1</dim>
				</port>
			</input>
			<output>
				<port id="1" precision="FP32">
					<dim>1</dim>
					<dim>32</dim>
					<dim>1</dim>
					<dim>1</dim>
				</port>
			</output>
		</layer>
		<layer id="33" name="Transpose_262585" type="Add" version="opset1">
			<data auto_broadcast="numpy" />
			<input>
				<port id="0" precision="FP32">
					<dim>-1</dim>
					<dim>32</dim>
					<dim>512</dim>
					<dim>512</dim>
				</port>
				<port id="1" precision="FP32">
					<dim>1</dim>
					<dim>32</dim>
					<dim>1</dim>
					<dim>1</dim>
				</port>
			</input>
			<output>
				<port id="2" precision="FP32">
					<dim>-1</dim>
					<dim>32</dim>
					<dim>512</dim>
					<dim>512</dim>
				</port>
			</output>
		</layer>
		<layer id="34" name="Transpose_262587" type="ReLU" version="opset1">
			<input>
				<port id="0" precision="FP32">
					<dim>-1</dim>
					<dim>32</dim>
					<dim>512</dim>
					<dim>512</dim>
				</port>
			</input>
			<output>
				<port id="1" precision="FP32">
					<dim>-1</dim>
					<dim>32</dim>
					<dim>512</dim>
					<dim>512</dim>
				</port>
			</output>
		</layer>
		<layer id="35" name="Multiply_442327_compressed" type="Const" version="opset1">
			<data element_type="f16" shape="32, 32, 3, 3" offset="1943" size="18432" />
			<output>
				<port id="0" precision="FP16">
					<dim>32</dim>
					<dim>32</dim>
					<dim>3</dim>
					<dim>3</dim>
				</port>
			</output>
		</layer>
		<layer id="36" name="Multiply_442327" type="Convert" version="opset1">
			<data destination_type="f32" />
			<rt_info>
				<attribute name="decompression" version="0" />
			</rt_info>
			<input>
				<port id="0" precision="FP16">
					<dim>32</dim>
					<dim>32</dim>
					<dim>3</dim>
					<dim>3</dim>
				</port>
			</input>
			<output>
				<port id="1" precision="FP32">
					<dim>32</dim>
					<dim>32</dim>
					<dim>3</dim>
					<dim>3</dim>
				</port>
			</output>
		</layer>
		<layer id="37" name="Multiply_441026" type="Convolution" version="opset1">
			<data strides="1, 1" dilations="1, 1" pads_begin="0, 0" pads_end="0, 0" auto_pad="same_upper" />
			<input>
				<port id="0" precision="FP32">
					<dim>-1</dim>
					<dim>32</dim>
					<dim>512</dim>
					<dim>512</dim>
				</port>
				<port id="1" precision="FP32">
					<dim>32</dim>
					<dim>32</dim>
					<dim>3</dim>
					<dim>3</dim>
				</port>
			</input>
			<output>
				<port id="2" precision="FP32">
					<dim>-1</dim>
					<dim>32</dim>
					<dim>512</dim>
					<dim>512</dim>
				</port>
			</output>
		</layer>
		<layer id="38" name="Constant_441031_compressed" type="Const" version="opset1">
			<data element_type="f16" shape="1, 32, 1, 1" offset="20375" size="64" />
			<output>
				<port id="0" precision="FP16">
					<dim>1</dim>
					<dim>32</dim>
					<dim>1</dim>
					<dim>1</dim>
				</port>
			</output>
		</layer>
		<layer id="39" name="Constant_441031" type="Convert" version="opset1">
			<data destination_type="f32" />
			<rt_info>
				<attribute name="decompression" version="0" />
			</rt_info>
			<input>
				<port id="0" precision="FP16">
					<dim>1</dim>
					<dim>32</dim>
					<dim>1</dim>
					<dim>1</dim>
				</port>
			</input>
			<output>
				<port id="1" precision="FP32">
					<dim>1</dim>
					<dim>32</dim>
					<dim>1</dim>
					<dim>1</dim>
				</port>
			</output>
		</layer>
		<layer id="40" name="Transpose_262611" type="Add" version="opset1">
			<data auto_broadcast="numpy" />
			<input>
				<port id="0" precision="FP32">
					<dim>-1</dim>
					<dim>32</dim>
					<dim>512</dim>
					<dim>512</dim>
				</port>
				<port id="1" precision="FP32">
					<dim>1</dim>
					<dim>32</dim>
					<dim>1</dim>
					<dim>1</dim>
				</port>
			</input>
			<output>
				<port id="2" precision="FP32">
					<dim>-1</dim>
					<dim>32</dim>
					<dim>512</dim>
					<dim>512</dim>
				</port>
			</output>
		</layer>
		<layer id="41" name="Transpose_262613" type="ReLU" version="opset1">
			<input>
				<port id="0" precision="FP32">
					<dim>-1</dim>
					<dim>32</dim>
					<dim>512</dim>
					<dim>512</dim>
				</port>
			</input>
			<output>
				<port id="1" precision="FP32">
					<dim>-1</dim>
					<dim>32</dim>
					<dim>512</dim>
					<dim>512</dim>
				</port>
			</output>
		</layer>
		<layer id="42" name="Multiply_442333_compressed" type="Const" version="opset1">
			<data element_type="f16" shape="64, 32, 3, 3" offset="20439" size="36864" />
			<output>
				<port id="0" precision="FP16">
					<dim>64</dim>
					<dim>32</dim>
					<dim>3</dim>
					<dim>3</dim>
				</port>
			</output>
		</layer>
		<layer id="43" name="Multiply_442333" type="Convert" version="opset1">
			<data destination_type="f32" />
			<rt_info>
				<attribute name="decompression" version="0" />
			</rt_info>
			<input>
				<port id="0" precision="FP16">
					<dim>64</dim>
					<dim>32</dim>
					<dim>3</dim>
					<dim>3</dim>
				</port>
			</input>
			<output>
				<port id="1" precision="FP32">
					<dim>64</dim>
					<dim>32</dim>
					<dim>3</dim>
					<dim>3</dim>
				</port>
			</output>
		</layer>
		<layer id="44" name="Multiply_441033" type="Convolution" version="opset1">
			<data strides="1, 1" dilations="1, 1" pads_begin="0, 0" pads_end="0, 0" auto_pad="same_upper" />
			<input>
				<port id="0" precision="FP32">
					<dim>-1</dim>
					<dim>32</dim>
					<dim>512</dim>
					<dim>512</dim>
				</port>
				<port id="1" precision="FP32">
					<dim>64</dim>
					<dim>32</dim>
					<dim>3</dim>
					<dim>3</dim>
				</port>
			</input>
			<output>
				<port id="2" precision="FP32">
					<dim>-1</dim>
					<dim>64</dim>
					<dim>512</dim>
					<dim>512</dim>
				</port>
			</output>
		</layer>
		<layer id="45" name="Constant_441038_compressed" type="Const" version="opset1">
			<data element_type="f16" shape="1, 64, 1, 1" offset="57303" size="128" />
			<output>
				<port id="0" precision="FP16">
					<dim>1</dim>
					<dim>64</dim>
					<dim>1</dim>
					<dim>1</dim>
				</port>
			</output>
		</layer>
		<layer id="46" name="Constant_441038" type="Convert" version="opset1">
			<data destination_type="f32" />
			<rt_info>
				<attribute name="decompression" version="0" />
			</rt_info>
			<input>
				<port id="0" precision="FP16">
					<dim>1</dim>
					<dim>64</dim>
					<dim>1</dim>
					<dim>1</dim>
				</port>
			</input>
			<output>
				<port id="1" precision="FP32">
					<dim>1</dim>
					<dim>64</dim>
					<dim>1</dim>
					<dim>1</dim>
				</port>
			</output>
		</layer>
		<layer id="47" name="Transpose_262637" type="Add" version="opset1">
			<data auto_broadcast="numpy" />
			<input>
				<port id="0" precision="FP32">
					<dim>-1</dim>
					<dim>64</dim>
					<dim>512</dim>
					<dim>512</dim>
				</port>
				<port id="1" precision="FP32">
					<dim>1</dim>
					<dim>64</dim>
					<dim>1</dim>
					<dim>1</dim>
				</port>
			</input>
			<output>
				<port id="2" precision="FP32">
					<dim>-1</dim>
					<dim>64</dim>
					<dim>512</dim>
					<dim>512</dim>
				</port>
			</output>
		</layer>
		<layer id="48" name="Transpose_262639" type="ReLU" version="opset1">
			<input>
				<port id="0" precision="FP32">
					<dim>-1</dim>
					<dim>64</dim>
					<dim>512</dim>
					<dim>512</dim>
				</port>
			</input>
			<output>
				<port id="1" precision="FP32">
					<dim>-1</dim>
					<dim>64</dim>
					<dim>512</dim>
					<dim>512</dim>
				</port>
			</output>
		</layer>
		<layer id="49" name="MaxPool_3467" type="MaxPool" version="opset8">
			<data strides="2, 2" dilations="1, 1" pads_begin="0, 0" pads_end="0, 0" kernel="3, 3" rounding_type="floor" auto_pad="same_upper" index_element_type="i64" axis="0" />
			<input>
				<port id="0" precision="FP32">
					<dim>-1</dim>
					<dim>64</dim>
					<dim>512</dim>
					<dim>512</dim>
				</port>
			</input>
			<output>
				<port id="1" precision="FP32">
					<dim>-1</dim>
					<dim>64</dim>
					<dim>256</dim>
					<dim>256</dim>
				</port>
				<port id="2" precision="I64">
					<dim>-1</dim>
					<dim>64</dim>
					<dim>256</dim>
					<dim>256</dim>
				</port>
			</output>
		</layer>
		<layer id="50" name="Multiply_442339_compressed" type="Const" version="opset1">
			<data element_type="f16" shape="80, 64, 1, 1" offset="57431" size="10240" />
			<output>
				<port id="0" precision="FP16">
					<dim>80</dim>
					<dim>64</dim>
					<dim>1</dim>
					<dim>1</dim>
				</port>
			</output>
		</layer>
		<layer id="51" name="Multiply_442339" type="Convert" version="opset1">
			<data destination_type="f32" />
			<rt_info>
				<attribute name="decompression" version="0" />
			</rt_info>
			<input>
				<port id="0" precision="FP16">
					<dim>80</dim>
					<dim>64</dim>
					<dim>1</dim>
					<dim>1</dim>
				</port>
			</input>
			<output>
				<port id="1" precision="FP32">
					<dim>80</dim>
					<dim>64</dim>
					<dim>1</dim>
					<dim>1</dim>
				</port>
			</output>
		</layer>
		<layer id="52" name="Multiply_441040" type="Convolution" version="opset1">
			<data strides="1, 1" dilations="1, 1" pads_begin="0, 0" pads_end="0, 0" auto_pad="same_upper" />
			<input>
				<port id="0" precision="FP32">
					<dim>-1</dim>
					<dim>64</dim>
					<dim>256</dim>
					<dim>256</dim>
				</port>
				<port id="1" precision="FP32">
					<dim>80</dim>
					<dim>64</dim>
					<dim>1</dim>
					<dim>1</dim>
				</port>
			</input>
			<output>
				<port id="2" precision="FP32">
					<dim>-1</dim>
					<dim>80</dim>
					<dim>256</dim>
					<dim>256</dim>
				</port>
			</output>
		</layer>
		<layer id="53" name="Constant_441045_compressed" type="Const" version="opset1">
			<data element_type="f16" shape="1, 80, 1, 1" offset="67671" size="160" />
			<output>
				<port id="0" precision="FP16">
					<dim>1</dim>
					<dim>80</dim>
					<dim>1</dim>
					<dim>1</dim>
				</port>
			</output>
		</layer>
		<layer id="54" name="Constant_441045" type="Convert" version="opset1">
			<data destination_type="f32" />
			<rt_info>
				<attribute name="decompression" version="0" />
			</rt_info>
			<input>
				<port id="0" precision="FP16">
					<dim>1</dim>
					<dim>80</dim>
					<dim>1</dim>
					<dim>1</dim>
				</port>
			</input>
			<output>
				<port id="1" precision="FP32">
					<dim>1</dim>
					<dim>80</dim>
					<dim>1</dim>
					<dim>1</dim>
				</port>
			</output>
		</layer>
		<layer id="55" name="Transpose_262663" type="Add" version="opset1">
			<data auto_broadcast="numpy" />
			<input>
				<port id="0" precision="FP32">
					<dim>-1</dim>
					<dim>80</dim>
					<dim>256</dim>
					<dim>256</dim>
				</port>
				<port id="1" precision="FP32">
					<dim>1</dim>
					<dim>80</dim>
					<dim>1</dim>
					<dim>1</dim>
				</port>
			</input>
			<output>
				<port id="2" precision="FP32">
					<dim>-1</dim>
					<dim>80</dim>
					<dim>256</dim>
					<dim>256</dim>
				</port>
			</output>
		</layer>
		<layer id="56" name="Transpose_262665" type="ReLU" version="opset1">
			<input>
				<port id="0" precision="FP32">
					<dim>-1</dim>
					<dim>80</dim>
					<dim>256</dim>
					<dim>256</dim>
				</port>
			</input>
			<output>
				<port id="1" precision="FP32">
					<dim>-1</dim>
					<dim>80</dim>
					<dim>256</dim>
					<dim>256</dim>
				</port>
			</output>
		</layer>
		<layer id="57" name="Multiply_442345_compressed" type="Const" version="opset1">
			<data element_type="f16" shape="192, 80, 3, 3" offset="67831" size="276480" />
			<output>
				<port id="0" precision="FP16">
					<dim>192</dim>
					<dim>80</dim>
					<dim>3</dim>
					<dim>3</dim>
				</port>
			</output>
		</layer>
		<layer id="58" name="Multiply_442345" type="Convert" version="opset1">
			<data destination_type="f32" />
			<rt_info>
				<attribute name="decompression" version="0" />
			</rt_info>
			<input>
				<port id="0" precision="FP16">
					<dim>192</dim>
					<dim>80</dim>
					<dim>3</dim>
					<dim>3</dim>
				</port>
			</input>
			<output>
				<port id="1" precision="FP32">
					<dim>192</dim>
					<dim>80</dim>
					<dim>3</dim>
					<dim>3</dim>
				</port>
			</output>
		</layer>
		<layer id="59" name="Multiply_441047" type="Convolution" version="opset1">
			<data strides="1, 1" dilations="1, 1" pads_begin="0, 0" pads_end="0, 0" auto_pad="same_upper" />
			<input>
				<port id="0" precision="FP32">
					<dim>-1</dim>
					<dim>80</dim>
					<dim>256</dim>
					<dim>256</dim>
				</port>
				<port id="1" precision="FP32">
					<dim>192</dim>
					<dim>80</dim>
					<dim>3</dim>
					<dim>3</dim>
				</port>
			</input>
			<output>
				<port id="2" precision="FP32">
					<dim>-1</dim>
					<dim>192</dim>
					<dim>256</dim>
					<dim>256</dim>
				</port>
			</output>
		</layer>
		<layer id="60" name="Constant_441052_compressed" type="Const" version="opset1">
			<data element_type="f16" shape="1, 192, 1, 1" offset="344311" size="384" />
			<output>
				<port id="0" precision="FP16">
					<dim>1</dim>
					<dim>192</dim>
					<dim>1</dim>
					<dim>1</dim>
				</port>
			</output>
		</layer>
		<layer id="61" name="Constant_441052" type="Convert" version="opset1">
			<data destination_type="f32" />
			<rt_info>
				<attribute name="decompression" version="0" />
			</rt_info>
			<input>
				<port id="0" precision="FP16">
					<dim>1</dim>
					<dim>192</dim>
					<dim>1</dim>
					<dim>1</dim>
				</port>
			</input>
			<output>
				<port id="1" precision="FP32">
					<dim>1</dim>
					<dim>192</dim>
					<dim>1</dim>
					<dim>1</dim>
				</port>
			</output>
		</layer>
		<layer id="62" name="Transpose_262689" type="Add" version="opset1">
			<data auto_broadcast="numpy" />
			<input>
				<port id="0" precision="FP32">
					<dim>-1</dim>
					<dim>192</dim>
					<dim>256</dim>
					<dim>256</dim>
				</port>
				<port id="1" precision="FP32">
					<dim>1</dim>
					<dim>192</dim>
					<dim>1</dim>
					<dim>1</dim>
				</port>
			</input>
			<output>
				<port id="2" precision="FP32">
					<dim>-1</dim>
					<dim>192</dim>
					<dim>256</dim>
					<dim>256</dim>
				</port>
			</output>
		</layer>
		<layer id="63" name="Transpose_262691" type="ReLU" version="opset1">
			<input>
				<port id="0" precision="FP32">
					<dim>-1</dim>
					<dim>192</dim>
					<dim>256</dim>
					<dim>256</dim>
				</port>
			</input>
			<output>
				<port id="1" precision="FP32">
					<dim>-1</dim>
					<dim>192</dim>
					<dim>256</dim>
					<dim>256</dim>
				</port>
			</output>
		</layer>
		<layer id="64" name="MaxPool_3526" type="MaxPool" version="opset8">
			<data strides="2, 2" dilations="1, 1" pads_begin="0, 0" pads_end="0, 0" kernel="3, 3" rounding_type="floor" auto_pad="same_upper" index_element_type="i64" axis="0" />
			<input>
				<port id="0" precision="FP32">
					<dim>-1</dim>
					<dim>192</dim>
					<dim>256</dim>
					<dim>256</dim>
				</port>
			</input>
			<output>
				<port id="1" precision="FP32">
					<dim>-1</dim>
					<dim>192</dim>
					<dim>128</dim>
					<dim>128</dim>
				</port>
				<port id="2" precision="I64">
					<dim>-1</dim>
					<dim>192</dim>
					<dim>128</dim>
					<dim>128</dim>
				</port>
			</output>
		</layer>
		<layer id="65" name="Multiply_442351_compressed" type="Const" version="opset1">
			<data element_type="f16" shape="96, 192, 1, 1" offset="344695" size="36864" />
			<output>
				<port id="0" precision="FP16">
					<dim>96</dim>
					<dim>192</dim>
					<dim>1</dim>
					<dim>1</dim>
				</port>
			</output>
		</layer>
		<layer id="66" name="Multiply_442351" type="Convert" version="opset1">
			<data destination_type="f32" />
			<rt_info>
				<attribute name="decompression" version="0" />
			</rt_info>
			<input>
				<port id="0" precision="FP16">
					<dim>96</dim>
					<dim>192</dim>
					<dim>1</dim>
					<dim>1</dim>
				</port>
			</input>
			<output>
				<port id="1" precision="FP32">
					<dim>96</dim>
					<dim>192</dim>
					<dim>1</dim>
					<dim>1</dim>
				</port>
			</output>
		</layer>
		<layer id="67" name="Multiply_441054" type="Convolution" version="opset1">
			<data strides="1, 1" dilations="1, 1" pads_begin="0, 0" pads_end="0, 0" auto_pad="same_upper" />
			<input>
				<port id="0" precision="FP32">
					<dim>-1</dim>
					<dim>192</dim>
					<dim>128</dim>
					<dim>128</dim>
				</port>
				<port id="1" precision="FP32">
					<dim>96</dim>
					<dim>192</dim>
					<dim>1</dim>
					<dim>1</dim>
				</port>
			</input>
			<output>
				<port id="2" precision="FP32">
					<dim>-1</dim>
					<dim>96</dim>
					<dim>128</dim>
					<dim>128</dim>
				</port>
			</output>
		</layer>
		<layer id="68" name="Constant_441059_compressed" type="Const" version="opset1">
			<data element_type="f16" shape="1, 96, 1, 1" offset="381559" size="192" />
			<output>
				<port id="0" precision="FP16">
					<dim>1</dim>
					<dim>96</dim>
					<dim>1</dim>
					<dim>1</dim>
				</port>
			</output>
		</layer>
		<layer id="69" name="Constant_441059" type="Convert" version="opset1">
			<data destination_type="f32" />
			<rt_info>
				<attribute name="decompression" version="0" />
			</rt_info>
			<input>
				<port id="0" precision="FP16">
					<dim>1</dim>
					<dim>96</dim>
					<dim>1</dim>
					<dim>1</dim>
				</port>
			</input>
			<output>
				<port id="1" precision="FP32">
					<dim>1</dim>
					<dim>96</dim>
					<dim>1</dim>
					<dim>1</dim>
				</port>
			</output>
		</layer>
		<layer id="70" name="Transpose_262715" type="Add" version="opset1">
			<data auto_broadcast="numpy" />
			<input>
				<port id="0" precision="FP32">
					<dim>-1</dim>
					<dim>96</dim>
					<dim>128</dim>
					<dim>128</dim>
				</port>
				<port id="1" precision="FP32">
					<dim>1</dim>
					<dim>96</dim>
					<dim>1</dim>
					<dim>1</dim>
				</port>
			</input>
			<output>
				<port id="2" precision="FP32">
					<dim>-1</dim>
					<dim>96</dim>
					<dim>128</dim>
					<dim>128</dim>
				</port>
			</output>
		</layer>
		<layer id="71" name="Transpose_262717" type="ReLU" version="opset1">
			<input>
				<port id="0" precision="FP32">
					<dim>-1</dim>
					<dim>96</dim>
					<dim>128</dim>
					<dim>128</dim>
				</port>
			</input>
			<output>
				<port id="1" precision="FP32">
					<dim>-1</dim>
					<dim>96</dim>
					<dim>128</dim>
					<dim>128</dim>
				</port>
			</output>
		</layer>
		<layer id="72" name="Multiply_442357_compressed" type="Const" version="opset1">
			<data element_type="f16" shape="48, 192, 1, 1" offset="381751" size="18432" />
			<output>
				<port id="0" precision="FP16">
					<dim>48</dim>
					<dim>192</dim>
					<dim>1</dim>
					<dim>1</dim>
				</port>
			</output>
		</layer>
		<layer id="73" name="Multiply_442357" type="Convert" version="opset1">
			<data destination_type="f32" />
			<rt_info>
				<attribute name="decompression" version="0" />
			</rt_info>
			<input>
				<port id="0" precision="FP16">
					<dim>48</dim>
					<dim>192</dim>
					<dim>1</dim>
					<dim>1</dim>
				</port>
			</input>
			<output>
				<port id="1" precision="FP32">
					<dim>48</dim>
					<dim>192</dim>
					<dim>1</dim>
					<dim>1</dim>
				</port>
			</output>
		</layer>
		<layer id="74" name="Multiply_441061" type="Convolution" version="opset1">
			<data strides="1, 1" dilations="1, 1" pads_begin="0, 0" pads_end="0, 0" auto_pad="same_upper" />
			<input>
				<port id="0" precision="FP32">
					<dim>-1</dim>
					<dim>192</dim>
					<dim>128</dim>
					<dim>128</dim>
				</port>
				<port id="1" precision="FP32">
					<dim>48</dim>
					<dim>192</dim>
					<dim>1</dim>
					<dim>1</dim>
				</port>
			</input>
			<output>
				<port id="2" precision="FP32">
					<dim>-1</dim>
					<dim>48</dim>
					<dim>128</dim>
					<dim>128</dim>
				</port>
			</output>
		</layer>
		<layer id="75" name="Constant_441066_compressed" type="Const" version="opset1">
			<data element_type="f16" shape="1, 48, 1, 1" offset="400183" size="96" />
			<output>
				<port id="0" precision="FP16">
					<dim>1</dim>
					<dim>48</dim>
					<dim>1</dim>
					<dim>1</dim>
				</port>
			</output>
		</layer>
		<layer id="76" name="Constant_441066" type="Convert" version="opset1">
			<data destination_type="f32" />
			<rt_info>
				<attribute name="decompression" version="0" />
			</rt_info>
			<input>
				<port id="0" precision="FP16">
					<dim>1</dim>
					<dim>48</dim>
					<dim>1</dim>
					<dim>1</dim>
				</port>
			</input>
			<output>
				<port id="1" precision="FP32">
					<dim>1</dim>
					<dim>48</dim>
					<dim>1</dim>
					<dim>1</dim>
				</port>
			</output>
		</layer>
		<layer id="77" name="Transpose_262741" type="Add" version="opset1">
			<data auto_broadcast="numpy" />
			<input>
				<port id="0" precision="FP32">
					<dim>-1</dim>
					<dim>48</dim>
					<dim>128</dim>
					<dim>128</dim>
				</port>
				<port id="1" precision="FP32">
					<dim>1</dim>
					<dim>48</dim>
					<dim>1</dim>
					<dim>1</dim>
				</port>
			</input>
			<output>
				<port id="2" precision="FP32">
					<dim>-1</dim>
					<dim>48</dim>
					<dim>128</dim>
					<dim>128</dim>
				</port>
			</output>
		</layer>
		<layer id="78" name="Transpose_262743" type="ReLU" version="opset1">
			<input>
				<port id="0" precision="FP32">
					<dim>-1</dim>
					<dim>48</dim>
					<dim>128</dim>
					<dim>128</dim>
				</port>
			</input>
			<output>
				<port id="1" precision="FP32">
					<dim>-1</dim>
					<dim>48</dim>
					<dim>128</dim>
					<dim>128</dim>
				</port>
			</output>
		</layer>
		<layer id="79" name="Multiply_442363_compressed" type="Const" version="opset1">
			<data element_type="f16" shape="64, 48, 5, 5" offset="400279" size="153600" />
			<output>
				<port id="0" precision="FP16">
					<dim>64</dim>
					<dim>48</dim>
					<dim>5</dim>
					<dim>5</dim>
				</port>
			</output>
		</layer>
		<layer id="80" name="Multiply_442363" type="Convert" version="opset1">
			<data destination_type="f32" />
			<rt_info>
				<attribute name="decompression" version="0" />
			</rt_info>
			<input>
				<port id="0" precision="FP16">
					<dim>64</dim>
					<dim>48</dim>
					<dim>5</dim>
					<dim>5</dim>
				</port>
			</input>
			<output>
				<port id="1" precision="FP32">
					<dim>64</dim>
					<dim>48</dim>
					<dim>5</dim>
					<dim>5</dim>
				</port>
			</output>
		</layer>
		<layer id="81" name="Multiply_441068" type="Convolution" version="opset1">
			<data strides="1, 1" dilations="1, 1" pads_begin="0, 0" pads_end="0, 0" auto_pad="same_upper" />
			<input>
				<port id="0" precision="FP32">
					<dim>-1</dim>
					<dim>48</dim>
					<dim>128</dim>
					<dim>128</dim>
				</port>
				<port id="1" precision="FP32">
					<dim>64</dim>
					<dim>48</dim>
					<dim>5</dim>
					<dim>5</dim>
				</port>
			</input>
			<output>
				<port id="2" precision="FP32">
					<dim>-1</dim>
					<dim>64</dim>
					<dim>128</dim>
					<dim>128</dim>
				</port>
			</output>
		</layer>
		<layer id="82" name="Constant_441073_compressed" type="Const" version="opset1">
			<data element_type="f16" shape="1, 64, 1, 1" offset="553879" size="128" />
			<output>
				<port id="0" precision="FP16">
					<dim>1</dim>
					<dim>64</dim>
					<dim>1</dim>
					<dim>1</dim>
				</port>
			</output>
		</layer>
		<layer id="83" name="Constant_441073" type="Convert" version="opset1">
			<data destination_type="f32" />
			<rt_info>
				<attribute name="decompression" version="0" />
			</rt_info>
			<input>
				<port id="0" precision="FP16">
					<dim>1</dim>
					<dim>64</dim>
					<dim>1</dim>
					<dim>1</dim>
				</port>
			</input>
			<output>
				<port id="1" precision="FP32">
					<dim>1</dim>
					<dim>64</dim>
					<dim>1</dim>
					<dim>1</dim>
				</port>
			</output>
		</layer>
		<layer id="84" name="Transpose_262767" type="Add" version="opset1">
			<data auto_broadcast="numpy" />
			<input>
				<port id="0" precision="FP32">
					<dim>-1</dim>
					<dim>64</dim>
					<dim>128</dim>
					<dim>128</dim>
				</port>
				<port id="1" precision="FP32">
					<dim>1</dim>
					<dim>64</dim>
					<dim>1</dim>
					<dim>1</dim>
				</port>
			</input>
			<output>
				<port id="2" precision="FP32">
					<dim>-1</dim>
					<dim>64</dim>
					<dim>128</dim>
					<dim>128</dim>
				</port>
			</output>
		</layer>
		<layer id="85" name="Transpose_262769" type="ReLU" version="opset1">
			<input>
				<port id="0" precision="FP32">
					<dim>-1</dim>
					<dim>64</dim>
					<dim>128</dim>
					<dim>128</dim>
				</port>
			</input>
			<output>
				<port id="1" precision="FP32">
					<dim>-1</dim>
					<dim>64</dim>
					<dim>128</dim>
					<dim>128</dim>
				</port>
			</output>
		</layer>
		<layer id="86" name="Multiply_442369_compressed" type="Const" version="opset1">
			<data element_type="f16" shape="64, 192, 1, 1" offset="554007" size="24576" />
			<output>
				<port id="0" precision="FP16">
					<dim>64</dim>
					<dim>192</dim>
					<dim>1</dim>
					<dim>1</dim>
				</port>
			</output>
		</layer>
		<layer id="87" name="Multiply_442369" type="Convert" version="opset1">
			<data destination_type="f32" />
			<rt_info>
				<attribute name="decompression" version="0" />
			</rt_info>
			<input>
				<port id="0" precision="FP16">
					<dim>64</dim>
					<dim>192</dim>
					<dim>1</dim>
					<dim>1</dim>
				</port>
			</input>
			<output>
				<port id="1" precision="FP32">
					<dim>64</dim>
					<dim>192</dim>
					<dim>1</dim>
					<dim>1</dim>
				</port>
			</output>
		</layer>
		<layer id="88" name="Multiply_441075" type="Convolution" version="opset1">
			<data strides="1, 1" dilations="1, 1" pads_begin="0, 0" pads_end="0, 0" auto_pad="same_upper" />
			<input>
				<port id="0" precision="FP32">
					<dim>-1</dim>
					<dim>192</dim>
					<dim>128</dim>
					<dim>128</dim>
				</port>
				<port id="1" precision="FP32">
					<dim>64</dim>
					<dim>192</dim>
					<dim>1</dim>
					<dim>1</dim>
				</port>
			</input>
			<output>
				<port id="2" precision="FP32">
					<dim>-1</dim>
					<dim>64</dim>
					<dim>128</dim>
					<dim>128</dim>
				</port>
			</output>
		</layer>
		<layer id="89" name="Constant_441080_compressed" type="Const" version="opset1">
			<data element_type="f16" shape="1, 64, 1, 1" offset="578583" size="128" />
			<output>
				<port id="0" precision="FP16">
					<dim>1</dim>
					<dim>64</dim>
					<dim>1</dim>
					<dim>1</dim>
				</port>
			</output>
		</layer>
		<layer id="90" name="Constant_441080" type="Convert" version="opset1">
			<data destination_type="f32" />
			<rt_info>
				<attribute name="decompression" version="0" />
			</rt_info>
			<input>
				<port id="0" precision="FP16">
					<dim>1</dim>
					<dim>64</dim>
					<dim>1</dim>
					<dim>1</dim>
				</port>
			</input>
			<output>
				<port id="1" precision="FP32">
					<dim>1</dim>
					<dim>64</dim>
					<dim>1</dim>
					<dim>1</dim>
				</port>
			</output>
		</layer>
		<layer id="91" name="Transpose_262793" type="Add" version="opset1">
			<data auto_broadcast="numpy" />
			<input>
				<port id="0" precision="FP32">
					<dim>-1</dim>
					<dim>64</dim>
					<dim>128</dim>
					<dim>128</dim>
				</port>
				<port id="1" precision="FP32">
					<dim>1</dim>
					<dim>64</dim>
					<dim>1</dim>
					<dim>1</dim>
				</port>
			</input>
			<output>
				<port id="2" precision="FP32">
					<dim>-1</dim>
					<dim>64</dim>
					<dim>128</dim>
					<dim>128</dim>
				</port>
			</output>
		</layer>
		<layer id="92" name="Transpose_262795" type="ReLU" version="opset1">
			<input>
				<port id="0" precision="FP32">
					<dim>-1</dim>
					<dim>64</dim>
					<dim>128</dim>
					<dim>128</dim>
				</port>
			</input>
			<output>
				<port id="1" precision="FP32">
					<dim>-1</dim>
					<dim>64</dim>
					<dim>128</dim>
					<dim>128</dim>
				</port>
			</output>
		</layer>
		<layer id="93" name="Multiply_442375_compressed" type="Const" version="opset1">
			<data element_type="f16" shape="96, 64, 3, 3" offset="578711" size="110592" />
			<output>
				<port id="0" precision="FP16">
					<dim>96</dim>
					<dim>64</dim>
					<dim>3</dim>
					<dim>3</dim>
				</port>
			</output>
		</layer>
		<layer id="94" name="Multiply_442375" type="Convert" version="opset1">
			<data destination_type="f32" />
			<rt_info>
				<attribute name="decompression" version="0" />
			</rt_info>
			<input>
				<port id="0" precision="FP16">
					<dim>96</dim>
					<dim>64</dim>
					<dim>3</dim>
					<dim>3</dim>
				</port>
			</input>
			<output>
				<port id="1" precision="FP32">
					<dim>96</dim>
					<dim>64</dim>
					<dim>3</dim>
					<dim>3</dim>
				</port>
			</output>
		</layer>
		<layer id="95" name="Multiply_441082" type="Convolution" version="opset1">
			<data strides="1, 1" dilations="1, 1" pads_begin="0, 0" pads_end="0, 0" auto_pad="same_upper" />
			<input>
				<port id="0" precision="FP32">
					<dim>-1</dim>
					<dim>64</dim>
					<dim>128</dim>
					<dim>128</dim>
				</port>
				<port id="1" precision="FP32">
					<dim>96</dim>
					<dim>64</dim>
					<dim>3</dim>
					<dim>3</dim>
				</port>
			</input>
			<output>
				<port id="2" precision="FP32">
					<dim>-1</dim>
					<dim>96</dim>
					<dim>128</dim>
					<dim>128</dim>
				</port>
			</output>
		</layer>
		<layer id="96" name="Constant_441087_compressed" type="Const" version="opset1">
			<data element_type="f16" shape="1, 96, 1, 1" offset="689303" size="192" />
			<output>
				<port id="0" precision="FP16">
					<dim>1</dim>
					<dim>96</dim>
					<dim>1</dim>
					<dim>1</dim>
				</port>
			</output>
		</layer>
		<layer id="97" name="Constant_441087" type="Convert" version="opset1">
			<data destination_type="f32" />
			<rt_info>
				<attribute name="decompression" version="0" />
			</rt_info>
			<input>
				<port id="0" precision="FP16">
					<dim>1</dim>
					<dim>96</dim>
					<dim>1</dim>
					<dim>1</dim>
				</port>
			</input>
			<output>
				<port id="1" precision="FP32">
					<dim>1</dim>
					<dim>96</dim>
					<dim>1</dim>
					<dim>1</dim>
				</port>
			</output>
		</layer>
		<layer id="98" name="Transpose_262819" type="Add" version="opset1">
			<data auto_broadcast="numpy" />
			<input>
				<port id="0" precision="FP32">
					<dim>-1</dim>
					<dim>96</dim>
					<dim>128</dim>
					<dim>128</dim>
				</port>
				<port id="1" precision="FP32">
					<dim>1</dim>
					<dim>96</dim>
					<dim>1</dim>
					<dim>1</dim>
				</port>
			</input>
			<output>
				<port id="2" precision="FP32">
					<dim>-1</dim>
					<dim>96</dim>
					<dim>128</dim>
					<dim>128</dim>
				</port>
			</output>
		</layer>
		<layer id="99" name="Transpose_262821" type="ReLU" version="opset1">
			<input>
				<port id="0" precision="FP32">
					<dim>-1</dim>
					<dim>96</dim>
					<dim>128</dim>
					<dim>128</dim>
				</port>
			</input>
			<output>
				<port id="1" precision="FP32">
					<dim>-1</dim>
					<dim>96</dim>
					<dim>128</dim>
					<dim>128</dim>
				</port>
			</output>
		</layer>
		<layer id="100" name="Multiply_442381_compressed" type="Const" version="opset1">
			<data element_type="f16" shape="96, 96, 3, 3" offset="689495" size="165888" />
			<output>
				<port id="0" precision="FP16">
					<dim>96</dim>
					<dim>96</dim>
					<dim>3</dim>
					<dim>3</dim>
				</port>
			</output>
		</layer>
		<layer id="101" name="Multiply_442381" type="Convert" version="opset1">
			<data destination_type="f32" />
			<rt_info>
				<attribute name="decompression" version="0" />
			</rt_info>
			<input>
				<port id="0" precision="FP16">
					<dim>96</dim>
					<dim>96</dim>
					<dim>3</dim>
					<dim>3</dim>
				</port>
			</input>
			<output>
				<port id="1" precision="FP32">
					<dim>96</dim>
					<dim>96</dim>
					<dim>3</dim>
					<dim>3</dim>
				</port>
			</output>
		</layer>
		<layer id="102" name="Multiply_441089" type="Convolution" version="opset1">
			<data strides="1, 1" dilations="1, 1" pads_begin="0, 0" pads_end="0, 0" auto_pad="same_upper" />
			<input>
				<port id="0" precision="FP32">
					<dim>-1</dim>
					<dim>96</dim>
					<dim>128</dim>
					<dim>128</dim>
				</port>
				<port id="1" precision="FP32">
					<dim>96</dim>
					<dim>96</dim>
					<dim>3</dim>
					<dim>3</dim>
				</port>
			</input>
			<output>
				<port id="2" precision="FP32">
					<dim>-1</dim>
					<dim>96</dim>
					<dim>128</dim>
					<dim>128</dim>
				</port>
			</output>
		</layer>
		<layer id="103" name="Constant_441094_compressed" type="Const" version="opset1">
			<data element_type="f16" shape="1, 96, 1, 1" offset="855383" size="192" />
			<output>
				<port id="0" precision="FP16">
					<dim>1</dim>
					<dim>96</dim>
					<dim>1</dim>
					<dim>1</dim>
				</port>
			</output>
		</layer>
		<layer id="104" name="Constant_441094" type="Convert" version="opset1">
			<data destination_type="f32" />
			<rt_info>
				<attribute name="decompression" version="0" />
			</rt_info>
			<input>
				<port id="0" precision="FP16">
					<dim>1</dim>
					<dim>96</dim>
					<dim>1</dim>
					<dim>1</dim>
				</port>
			</input>
			<output>
				<port id="1" precision="FP32">
					<dim>1</dim>
					<dim>96</dim>
					<dim>1</dim>
					<dim>1</dim>
				</port>
			</output>
		</layer>
		<layer id="105" name="Transpose_262845" type="Add" version="opset1">
			<data auto_broadcast="numpy" />
			<input>
				<port id="0" precision="FP32">
					<dim>-1</dim>
					<dim>96</dim>
					<dim>128</dim>
					<dim>128</dim>
				</port>
				<port id="1" precision="FP32">
					<dim>1</dim>
					<dim>96</dim>
					<dim>1</dim>
					<dim>1</dim>
				</port>
			</input>
			<output>
				<port id="2" precision="FP32">
					<dim>-1</dim>
					<dim>96</dim>
					<dim>128</dim>
					<dim>128</dim>
				</port>
			</output>
		</layer>
		<layer id="106" name="Transpose_262847" type="ReLU" version="opset1">
			<input>
				<port id="0" precision="FP32">
					<dim>-1</dim>
					<dim>96</dim>
					<dim>128</dim>
					<dim>128</dim>
				</port>
			</input>
			<output>
				<port id="1" precision="FP32">
					<dim>-1</dim>
					<dim>96</dim>
					<dim>128</dim>
					<dim>128</dim>
				</port>
			</output>
		</layer>
		<layer id="107" name="AvgPool_3531" type="AvgPool" version="opset1">
			<data kernel="3, 3" strides="1, 1" pads_begin="0, 0" pads_end="0, 0" exclude-pad="true" auto_pad="same_upper" rounding_type="floor" />
			<input>
				<port id="0" precision="FP32">
					<dim>-1</dim>
					<dim>192</dim>
					<dim>128</dim>
					<dim>128</dim>
				</port>
			</input>
			<output>
				<port id="1" precision="FP32">
					<dim>-1</dim>
					<dim>192</dim>
					<dim>128</dim>
					<dim>128</dim>
				</port>
			</output>
		</layer>
		<layer id="108" name="Multiply_442387_compressed" type="Const" version="opset1">
			<data element_type="f16" shape="64, 192, 1, 1" offset="855575" size="24576" />
			<output>
				<port id="0" precision="FP16">
					<dim>64</dim>
					<dim>192</dim>
					<dim>1</dim>
					<dim>1</dim>
				</port>
			</output>
		</layer>
		<layer id="109" name="Multiply_442387" type="Convert" version="opset1">
			<data destination_type="f32" />
			<rt_info>
				<attribute name="decompression" version="0" />
			</rt_info>
			<input>
				<port id="0" precision="FP16">
					<dim>64</dim>
					<dim>192</dim>
					<dim>1</dim>
					<dim>1</dim>
				</port>
			</input>
			<output>
				<port id="1" precision="FP32">
					<dim>64</dim>
					<dim>192</dim>
					<dim>1</dim>
					<dim>1</dim>
				</port>
			</output>
		</layer>
		<layer id="110" name="Multiply_441096" type="Convolution" version="opset1">
			<data strides="1, 1" dilations="1, 1" pads_begin="0, 0" pads_end="0, 0" auto_pad="same_upper" />
			<input>
				<port id="0" precision="FP32">
					<dim>-1</dim>
					<dim>192</dim>
					<dim>128</dim>
					<dim>128</dim>
				</port>
				<port id="1" precision="FP32">
					<dim>64</dim>
					<dim>192</dim>
					<dim>1</dim>
					<dim>1</dim>
				</port>
			</input>
			<output>
				<port id="2" precision="FP32">
					<dim>-1</dim>
					<dim>64</dim>
					<dim>128</dim>
					<dim>128</dim>
				</port>
			</output>
		</layer>
		<layer id="111" name="Constant_441101_compressed" type="Const" version="opset1">
			<data element_type="f16" shape="1, 64, 1, 1" offset="880151" size="128" />
			<output>
				<port id="0" precision="FP16">
					<dim>1</dim>
					<dim>64</dim>
					<dim>1</dim>
					<dim>1</dim>
				</port>
			</output>
		</layer>
		<layer id="112" name="Constant_441101" type="Convert" version="opset1">
			<data destination_type="f32" />
			<rt_info>
				<attribute name="decompression" version="0" />
			</rt_info>
			<input>
				<port id="0" precision="FP16">
					<dim>1</dim>
					<dim>64</dim>
					<dim>1</dim>
					<dim>1</dim>
				</port>
			</input>
			<output>
				<port id="1" precision="FP32">
					<dim>1</dim>
					<dim>64</dim>
					<dim>1</dim>
					<dim>1</dim>
				</port>
			</output>
		</layer>
		<layer id="113" name="Transpose_262871" type="Add" version="opset1">
			<data auto_broadcast="numpy" />
			<input>
				<port id="0" precision="FP32">
					<dim>-1</dim>
					<dim>64</dim>
					<dim>128</dim>
					<dim>128</dim>
				</port>
				<port id="1" precision="FP32">
					<dim>1</dim>
					<dim>64</dim>
					<dim>1</dim>
					<dim>1</dim>
				</port>
			</input>
			<output>
				<port id="2" precision="FP32">
					<dim>-1</dim>
					<dim>64</dim>
					<dim>128</dim>
					<dim>128</dim>
				</port>
			</output>
		</layer>
		<layer id="114" name="Transpose_262873" type="ReLU" version="opset1">
			<input>
				<port id="0" precision="FP32">
					<dim>-1</dim>
					<dim>64</dim>
					<dim>128</dim>
					<dim>128</dim>
				</port>
			</input>
			<output>
				<port id="1" precision="FP32">
					<dim>-1</dim>
					<dim>64</dim>
					<dim>128</dim>
					<dim>128</dim>
				</port>
			</output>
		</layer>
		<layer id="115" name="Transpose_262881" type="Concat" version="opset1">
			<data axis="1" />
			<input>
				<port id="0" precision="FP32">
					<dim>-1</dim>
					<dim>96</dim>
					<dim>128</dim>
					<dim>128</dim>
				</port>
				<port id="1" precision="FP32">
					<dim>-1</dim>
					<dim>64</dim>
					<dim>128</dim>
					<dim>128</dim>
				</port>
				<port id="2" precision="FP32">
					<dim>-1</dim>
					<dim>96</dim>
					<dim>128</dim>
					<dim>128</dim>
				</port>
				<port id="3" precision="FP32">
					<dim>-1</dim>
					<dim>64</dim>
					<dim>128</dim>
					<dim>128</dim>
				</port>
			</input>
			<output>
				<port id="4" precision="FP32">
					<dim>-1</dim>
					<dim>320</dim>
					<dim>128</dim>
					<dim>128</dim>
				</port>
			</output>
		</layer>
		<layer id="116" name="Multiply_442393_compressed" type="Const" version="opset1">
			<data element_type="f16" shape="32, 320, 1, 1" offset="880279" size="20480" />
			<output>
				<port id="0" precision="FP16">
					<dim>32</dim>
					<dim>320</dim>
					<dim>1</dim>
					<dim>1</dim>
				</port>
			</output>
		</layer>
		<layer id="117" name="Multiply_442393" type="Convert" version="opset1">
			<data destination_type="f32" />
			<rt_info>
				<attribute name="decompression" version="0" />
			</rt_info>
			<input>
				<port id="0" precision="FP16">
					<dim>32</dim>
					<dim>320</dim>
					<dim>1</dim>
					<dim>1</dim>
				</port>
			</input>
			<output>
				<port id="1" precision="FP32">
					<dim>32</dim>
					<dim>320</dim>
					<dim>1</dim>
					<dim>1</dim>
				</port>
			</output>
		</layer>
		<layer id="118" name="Multiply_441103" type="Convolution" version="opset1">
			<data strides="1, 1" dilations="1, 1" pads_begin="0, 0" pads_end="0, 0" auto_pad="same_upper" />
			<input>
				<port id="0" precision="FP32">
					<dim>-1</dim>
					<dim>320</dim>
					<dim>128</dim>
					<dim>128</dim>
				</port>
				<port id="1" precision="FP32">
					<dim>32</dim>
					<dim>320</dim>
					<dim>1</dim>
					<dim>1</dim>
				</port>
			</input>
			<output>
				<port id="2" precision="FP32">
					<dim>-1</dim>
					<dim>32</dim>
					<dim>128</dim>
					<dim>128</dim>
				</port>
			</output>
		</layer>
		<layer id="119" name="Constant_441108_compressed" type="Const" version="opset1">
			<data element_type="f16" shape="1, 32, 1, 1" offset="900759" size="64" />
			<output>
				<port id="0" precision="FP16">
					<dim>1</dim>
					<dim>32</dim>
					<dim>1</dim>
					<dim>1</dim>
				</port>
			</output>
		</layer>
		<layer id="120" name="Constant_441108" type="Convert" version="opset1">
			<data destination_type="f32" />
			<rt_info>
				<attribute name="decompression" version="0" />
			</rt_info>
			<input>
				<port id="0" precision="FP16">
					<dim>1</dim>
					<dim>32</dim>
					<dim>1</dim>
					<dim>1</dim>
				</port>
			</input>
			<output>
				<port id="1" precision="FP32">
					<dim>1</dim>
					<dim>32</dim>
					<dim>1</dim>
					<dim>1</dim>
				</port>
			</output>
		</layer>
		<layer id="121" name="Transpose_262905" type="Add" version="opset1">
			<data auto_broadcast="numpy" />
			<input>
				<port id="0" precision="FP32">
					<dim>-1</dim>
					<dim>32</dim>
					<dim>128</dim>
					<dim>128</dim>
				</port>
				<port id="1" precision="FP32">
					<dim>1</dim>
					<dim>32</dim>
					<dim>1</dim>
					<dim>1</dim>
				</port>
			</input>
			<output>
				<port id="2" precision="FP32">
					<dim>-1</dim>
					<dim>32</dim>
					<dim>128</dim>
					<dim>128</dim>
				</port>
			</output>
		</layer>
		<layer id="122" name="Transpose_262907" type="ReLU" version="opset1">
			<input>
				<port id="0" precision="FP32">
					<dim>-1</dim>
					<dim>32</dim>
					<dim>128</dim>
					<dim>128</dim>
				</port>
			</input>
			<output>
				<port id="1" precision="FP32">
					<dim>-1</dim>
					<dim>32</dim>
					<dim>128</dim>
					<dim>128</dim>
				</port>
			</output>
		</layer>
		<layer id="123" name="Multiply_442399_compressed" type="Const" version="opset1">
			<data element_type="f16" shape="32, 320, 1, 1" offset="900823" size="20480" />
			<output>
				<port id="0" precision="FP16">
					<dim>32</dim>
					<dim>320</dim>
					<dim>1</dim>
					<dim>1</dim>
				</port>
			</output>
		</layer>
		<layer id="124" name="Multiply_442399" type="Convert" version="opset1">
			<data destination_type="f32" />
			<rt_info>
				<attribute name="decompression" version="0" />
			</rt_info>
			<input>
				<port id="0" precision="FP16">
					<dim>32</dim>
					<dim>320</dim>
					<dim>1</dim>
					<dim>1</dim>
				</port>
			</input>
			<output>
				<port id="1" precision="FP32">
					<dim>32</dim>
					<dim>320</dim>
					<dim>1</dim>
					<dim>1</dim>
				</port>
			</output>
		</layer>
		<layer id="125" name="Multiply_441110" type="Convolution" version="opset1">
			<data strides="1, 1" dilations="1, 1" pads_begin="0, 0" pads_end="0, 0" auto_pad="same_upper" />
			<input>
				<port id="0" precision="FP32">
					<dim>-1</dim>
					<dim>320</dim>
					<dim>128</dim>
					<dim>128</dim>
				</port>
				<port id="1" precision="FP32">
					<dim>32</dim>
					<dim>320</dim>
					<dim>1</dim>
					<dim>1</dim>
				</port>
			</input>
			<output>
				<port id="2" precision="FP32">
					<dim>-1</dim>
					<dim>32</dim>
					<dim>128</dim>
					<dim>128</dim>
				</port>
			</output>
		</layer>
		<layer id="126" name="Constant_441115_compressed" type="Const" version="opset1">
			<data element_type="f16" shape="1, 32, 1, 1" offset="921303" size="64" />
			<output>
				<port id="0" precision="FP16">
					<dim>1</dim>
					<dim>32</dim>
					<dim>1</dim>
					<dim>1</dim>
				</port>
			</output>
		</layer>
		<layer id="127" name="Constant_441115" type="Convert" version="opset1">
			<data destination_type="f32" />
			<rt_info>
				<attribute name="decompression" version="0" />
			</rt_info>
			<input>
				<port id="0" precision="FP16">
					<dim>1</dim>
					<dim>32</dim>
					<dim>1</dim>
					<dim>1</dim>
				</port>
			</input>
			<output>
				<port id="1" precision="FP32">
					<dim>1</dim>
					<dim>32</dim>
					<dim>1</dim>
					<dim>1</dim>
				</port>
			</output>
		</layer>
		<layer id="128" name="Transpose_262931" type="Add" version="opset1">
			<data auto_broadcast="numpy" />
			<input>
				<port id="0" precision="FP32">
					<dim>-1</dim>
					<dim>32</dim>
					<dim>128</dim>
					<dim>128</dim>
				</port>
				<port id="1" precision="FP32">
					<dim>1</dim>
					<dim>32</dim>
					<dim>1</dim>
					<dim>1</dim>
				</port>
			</input>
			<output>
				<port id="2" precision="FP32">
					<dim>-1</dim>
					<dim>32</dim>
					<dim>128</dim>
					<dim>128</dim>
				</port>
			</output>
		</layer>
		<layer id="129" name="Transpose_262933" type="ReLU" version="opset1">
			<input>
				<port id="0" precision="FP32">
					<dim>-1</dim>
					<dim>32</dim>
					<dim>128</dim>
					<dim>128</dim>
				</port>
			</input>
			<output>
				<port id="1" precision="FP32">
					<dim>-1</dim>
					<dim>32</dim>
					<dim>128</dim>
					<dim>128</dim>
				</port>
			</output>
		</layer>
		<layer id="130" name="Multiply_442405_compressed" type="Const" version="opset1">
			<data element_type="f16" shape="32, 32, 3, 3" offset="921367" size="18432" />
			<output>
				<port id="0" precision="FP16">
					<dim>32</dim>
					<dim>32</dim>
					<dim>3</dim>
					<dim>3</dim>
				</port>
			</output>
		</layer>
		<layer id="131" name="Multiply_442405" type="Convert" version="opset1">
			<data destination_type="f32" />
			<rt_info>
				<attribute name="decompression" version="0" />
			</rt_info>
			<input>
				<port id="0" precision="FP16">
					<dim>32</dim>
					<dim>32</dim>
					<dim>3</dim>
					<dim>3</dim>
				</port>
			</input>
			<output>
				<port id="1" precision="FP32">
					<dim>32</dim>
					<dim>32</dim>
					<dim>3</dim>
					<dim>3</dim>
				</port>
			</output>
		</layer>
		<layer id="132" name="Multiply_441117" type="Convolution" version="opset1">
			<data strides="1, 1" dilations="1, 1" pads_begin="0, 0" pads_end="0, 0" auto_pad="same_upper" />
			<input>
				<port id="0" precision="FP32">
					<dim>-1</dim>
					<dim>32</dim>
					<dim>128</dim>
					<dim>128</dim>
				</port>
				<port id="1" precision="FP32">
					<dim>32</dim>
					<dim>32</dim>
					<dim>3</dim>
					<dim>3</dim>
				</port>
			</input>
			<output>
				<port id="2" precision="FP32">
					<dim>-1</dim>
					<dim>32</dim>
					<dim>128</dim>
					<dim>128</dim>
				</port>
			</output>
		</layer>
		<layer id="133" name="Constant_441122_compressed" type="Const" version="opset1">
			<data element_type="f16" shape="1, 32, 1, 1" offset="939799" size="64" />
			<output>
				<port id="0" precision="FP16">
					<dim>1</dim>
					<dim>32</dim>
					<dim>1</dim>
					<dim>1</dim>
				</port>
			</output>
		</layer>
		<layer id="134" name="Constant_441122" type="Convert" version="opset1">
			<data destination_type="f32" />
			<rt_info>
				<attribute name="decompression" version="0" />
			</rt_info>
			<input>
				<port id="0" precision="FP16">
					<dim>1</dim>
					<dim>32</dim>
					<dim>1</dim>
					<dim>1</dim>
				</port>
			</input>
			<output>
				<port id="1" precision="FP32">
					<dim>1</dim>
					<dim>32</dim>
					<dim>1</dim>
					<dim>1</dim>
				</port>
			</output>
		</layer>
		<layer id="135" name="Transpose_262957" type="Add" version="opset1">
			<data auto_broadcast="numpy" />
			<input>
				<port id="0" precision="FP32">
					<dim>-1</dim>
					<dim>32</dim>
					<dim>128</dim>
					<dim>128</dim>
				</port>
				<port id="1" precision="FP32">
					<dim>1</dim>
					<dim>32</dim>
					<dim>1</dim>
					<dim>1</dim>
				</port>
			</input>
			<output>
				<port id="2" precision="FP32">
					<dim>-1</dim>
					<dim>32</dim>
					<dim>128</dim>
					<dim>128</dim>
				</port>
			</output>
		</layer>
		<layer id="136" name="Transpose_262959" type="ReLU" version="opset1">
			<input>
				<port id="0" precision="FP32">
					<dim>-1</dim>
					<dim>32</dim>
					<dim>128</dim>
					<dim>128</dim>
				</port>
			</input>
			<output>
				<port id="1" precision="FP32">
					<dim>-1</dim>
					<dim>32</dim>
					<dim>128</dim>
					<dim>128</dim>
				</port>
			</output>
		</layer>
		<layer id="137" name="Multiply_442411_compressed" type="Const" version="opset1">
			<data element_type="f16" shape="32, 320, 1, 1" offset="939863" size="20480" />
			<output>
				<port id="0" precision="FP16">
					<dim>32</dim>
					<dim>320</dim>
					<dim>1</dim>
					<dim>1</dim>
				</port>
			</output>
		</layer>
		<layer id="138" name="Multiply_442411" type="Convert" version="opset1">
			<data destination_type="f32" />
			<rt_info>
				<attribute name="decompression" version="0" />
			</rt_info>
			<input>
				<port id="0" precision="FP16">
					<dim>32</dim>
					<dim>320</dim>
					<dim>1</dim>
					<dim>1</dim>
				</port>
			</input>
			<output>
				<port id="1" precision="FP32">
					<dim>32</dim>
					<dim>320</dim>
					<dim>1</dim>
					<dim>1</dim>
				</port>
			</output>
		</layer>
		<layer id="139" name="Multiply_441124" type="Convolution" version="opset1">
			<data strides="1, 1" dilations="1, 1" pads_begin="0, 0" pads_end="0, 0" auto_pad="same_upper" />
			<input>
				<port id="0" precision="FP32">
					<dim>-1</dim>
					<dim>320</dim>
					<dim>128</dim>
					<dim>128</dim>
				</port>
				<port id="1" precision="FP32">
					<dim>32</dim>
					<dim>320</dim>
					<dim>1</dim>
					<dim>1</dim>
				</port>
			</input>
			<output>
				<port id="2" precision="FP32">
					<dim>-1</dim>
					<dim>32</dim>
					<dim>128</dim>
					<dim>128</dim>
				</port>
			</output>
		</layer>
		<layer id="140" name="Constant_441129_compressed" type="Const" version="opset1">
			<data element_type="f16" shape="1, 32, 1, 1" offset="960343" size="64" />
			<output>
				<port id="0" precision="FP16">
					<dim>1</dim>
					<dim>32</dim>
					<dim>1</dim>
					<dim>1</dim>
				</port>
			</output>
		</layer>
		<layer id="141" name="Constant_441129" type="Convert" version="opset1">
			<data destination_type="f32" />
			<rt_info>
				<attribute name="decompression" version="0" />
			</rt_info>
			<input>
				<port id="0" precision="FP16">
					<dim>1</dim>
					<dim>32</dim>
					<dim>1</dim>
					<dim>1</dim>
				</port>
			</input>
			<output>
				<port id="1" precision="FP32">
					<dim>1</dim>
					<dim>32</dim>
					<dim>1</dim>
					<dim>1</dim>
				</port>
			</output>
		</layer>
		<layer id="142" name="Transpose_262983" type="Add" version="opset1">
			<data auto_broadcast="numpy" />
			<input>
				<port id="0" precision="FP32">
					<dim>-1</dim>
					<dim>32</dim>
					<dim>128</dim>
					<dim>128</dim>
				</port>
				<port id="1" precision="FP32">
					<dim>1</dim>
					<dim>32</dim>
					<dim>1</dim>
					<dim>1</dim>
				</port>
			</input>
			<output>
				<port id="2" precision="FP32">
					<dim>-1</dim>
					<dim>32</dim>
					<dim>128</dim>
					<dim>128</dim>
				</port>
			</output>
		</layer>
		<layer id="143" name="Transpose_262985" type="ReLU" version="opset1">
			<input>
				<port id="0" precision="FP32">
					<dim>-1</dim>
					<dim>32</dim>
					<dim>128</dim>
					<dim>128</dim>
				</port>
			</input>
			<output>
				<port id="1" precision="FP32">
					<dim>-1</dim>
					<dim>32</dim>
					<dim>128</dim>
					<dim>128</dim>
				</port>
			</output>
		</layer>
		<layer id="144" name="Multiply_442417_compressed" type="Const" version="opset1">
			<data element_type="f16" shape="48, 32, 3, 3" offset="960407" size="27648" />
			<output>
				<port id="0" precision="FP16">
					<dim>48</dim>
					<dim>32</dim>
					<dim>3</dim>
					<dim>3</dim>
				</port>
			</output>
		</layer>
		<layer id="145" name="Multiply_442417" type="Convert" version="opset1">
			<data destination_type="f32" />
			<rt_info>
				<attribute name="decompression" version="0" />
			</rt_info>
			<input>
				<port id="0" precision="FP16">
					<dim>48</dim>
					<dim>32</dim>
					<dim>3</dim>
					<dim>3</dim>
				</port>
			</input>
			<output>
				<port id="1" precision="FP32">
					<dim>48</dim>
					<dim>32</dim>
					<dim>3</dim>
					<dim>3</dim>
				</port>
			</output>
		</layer>
		<layer id="146" name="Multiply_441131" type="Convolution" version="opset1">
			<data strides="1, 1" dilations="1, 1" pads_begin="0, 0" pads_end="0, 0" auto_pad="same_upper" />
			<input>
				<port id="0" precision="FP32">
					<dim>-1</dim>
					<dim>32</dim>
					<dim>128</dim>
					<dim>128</dim>
				</port>
				<port id="1" precision="FP32">
					<dim>48</dim>
					<dim>32</dim>
					<dim>3</dim>
					<dim>3</dim>
				</port>
			</input>
			<output>
				<port id="2" precision="FP32">
					<dim>-1</dim>
					<dim>48</dim>
					<dim>128</dim>
					<dim>128</dim>
				</port>
			</output>
		</layer>
		<layer id="147" name="Constant_441136_compressed" type="Const" version="opset1">
			<data element_type="f16" shape="1, 48, 1, 1" offset="988055" size="96" />
			<output>
				<port id="0" precision="FP16">
					<dim>1</dim>
					<dim>48</dim>
					<dim>1</dim>
					<dim>1</dim>
				</port>
			</output>
		</layer>
		<layer id="148" name="Constant_441136" type="Convert" version="opset1">
			<data destination_type="f32" />
			<rt_info>
				<attribute name="decompression" version="0" />
			</rt_info>
			<input>
				<port id="0" precision="FP16">
					<dim>1</dim>
					<dim>48</dim>
					<dim>1</dim>
					<dim>1</dim>
				</port>
			</input>
			<output>
				<port id="1" precision="FP32">
					<dim>1</dim>
					<dim>48</dim>
					<dim>1</dim>
					<dim>1</dim>
				</port>
			</output>
		</layer>
		<layer id="149" name="Transpose_263009" type="Add" version="opset1">
			<data auto_broadcast="numpy" />
			<input>
				<port id="0" precision="FP32">
					<dim>-1</dim>
					<dim>48</dim>
					<dim>128</dim>
					<dim>128</dim>
				</port>
				<port id="1" precision="FP32">
					<dim>1</dim>
					<dim>48</dim>
					<dim>1</dim>
					<dim>1</dim>
				</port>
			</input>
			<output>
				<port id="2" precision="FP32">
					<dim>-1</dim>
					<dim>48</dim>
					<dim>128</dim>
					<dim>128</dim>
				</port>
			</output>
		</layer>
		<layer id="150" name="Transpose_263011" type="ReLU" version="opset1">
			<input>
				<port id="0" precision="FP32">
					<dim>-1</dim>
					<dim>48</dim>
					<dim>128</dim>
					<dim>128</dim>
				</port>
			</input>
			<output>
				<port id="1" precision="FP32">
					<dim>-1</dim>
					<dim>48</dim>
					<dim>128</dim>
					<dim>128</dim>
				</port>
			</output>
		</layer>
		<layer id="151" name="Multiply_442423_compressed" type="Const" version="opset1">
			<data element_type="f16" shape="64, 48, 3, 3" offset="988151" size="55296" />
			<output>
				<port id="0" precision="FP16">
					<dim>64</dim>
					<dim>48</dim>
					<dim>3</dim>
					<dim>3</dim>
				</port>
			</output>
		</layer>
		<layer id="152" name="Multiply_442423" type="Convert" version="opset1">
			<data destination_type="f32" />
			<rt_info>
				<attribute name="decompression" version="0" />
			</rt_info>
			<input>
				<port id="0" precision="FP16">
					<dim>64</dim>
					<dim>48</dim>
					<dim>3</dim>
					<dim>3</dim>
				</port>
			</input>
			<output>
				<port id="1" precision="FP32">
					<dim>64</dim>
					<dim>48</dim>
					<dim>3</dim>
					<dim>3</dim>
				</port>
			</output>
		</layer>
		<layer id="153" name="Multiply_441138" type="Convolution" version="opset1">
			<data strides="1, 1" dilations="1, 1" pads_begin="0, 0" pads_end="0, 0" auto_pad="same_upper" />
			<input>
				<port id="0" precision="FP32">
					<dim>-1</dim>
					<dim>48</dim>
					<dim>128</dim>
					<dim>128</dim>
				</port>
				<port id="1" precision="FP32">
					<dim>64</dim>
					<dim>48</dim>
					<dim>3</dim>
					<dim>3</dim>
				</port>
			</input>
			<output>
				<port id="2" precision="FP32">
					<dim>-1</dim>
					<dim>64</dim>
					<dim>128</dim>
					<dim>128</dim>
				</port>
			</output>
		</layer>
		<layer id="154" name="Constant_441143_compressed" type="Const" version="opset1">
			<data element_type="f16" shape="1, 64, 1, 1" offset="1043447" size="128" />
			<output>
				<port id="0" precision="FP16">
					<dim>1</dim>
					<dim>64</dim>
					<dim>1</dim>
					<dim>1</dim>
				</port>
			</output>
		</layer>
		<layer id="155" name="Constant_441143" type="Convert" version="opset1">
			<data destination_type="f32" />
			<rt_info>
				<attribute name="decompression" version="0" />
			</rt_info>
			<input>
				<port id="0" precision="FP16">
					<dim>1</dim>
					<dim>64</dim>
					<dim>1</dim>
					<dim>1</dim>
				</port>
			</input>
			<output>
				<port id="1" precision="FP32">
					<dim>1</dim>
					<dim>64</dim>
					<dim>1</dim>
					<dim>1</dim>
				</port>
			</output>
		</layer>
		<layer id="156" name="Transpose_263035" type="Add" version="opset1">
			<data auto_broadcast="numpy" />
			<input>
				<port id="0" precision="FP32">
					<dim>-1</dim>
					<dim>64</dim>
					<dim>128</dim>
					<dim>128</dim>
				</port>
				<port id="1" precision="FP32">
					<dim>1</dim>
					<dim>64</dim>
					<dim>1</dim>
					<dim>1</dim>
				</port>
			</input>
			<output>
				<port id="2" precision="FP32">
					<dim>-1</dim>
					<dim>64</dim>
					<dim>128</dim>
					<dim>128</dim>
				</port>
			</output>
		</layer>
		<layer id="157" name="Transpose_263037" type="ReLU" version="opset1">
			<input>
				<port id="0" precision="FP32">
					<dim>-1</dim>
					<dim>64</dim>
					<dim>128</dim>
					<dim>128</dim>
				</port>
			</input>
			<output>
				<port id="1" precision="FP32">
					<dim>-1</dim>
					<dim>64</dim>
					<dim>128</dim>
					<dim>128</dim>
				</port>
			</output>
		</layer>
		<layer id="158" name="Transpose_263043" type="Concat" version="opset1">
			<data axis="1" />
			<input>
				<port id="0" precision="FP32">
					<dim>-1</dim>
					<dim>32</dim>
					<dim>128</dim>
					<dim>128</dim>
				</port>
				<port id="1" precision="FP32">
					<dim>-1</dim>
					<dim>32</dim>
					<dim>128</dim>
					<dim>128</dim>
				</port>
				<port id="2" precision="FP32">
					<dim>-1</dim>
					<dim>64</dim>
					<dim>128</dim>
					<dim>128</dim>
				</port>
			</input>
			<output>
				<port id="3" precision="FP32">
					<dim>-1</dim>
					<dim>128</dim>
					<dim>128</dim>
					<dim>128</dim>
				</port>
			</output>
		</layer>
		<layer id="159" name="Multiply_442425_compressed" type="Const" version="opset1">
			<data element_type="f16" shape="320, 128, 1, 1" offset="1043575" size="81920" />
			<output>
				<port id="0" precision="FP16">
					<dim>320</dim>
					<dim>128</dim>
					<dim>1</dim>
					<dim>1</dim>
				</port>
			</output>
		</layer>
		<layer id="160" name="Multiply_442425" type="Convert" version="opset1">
			<data destination_type="f32" />
			<rt_info>
				<attribute name="decompression" version="0" />
			</rt_info>
			<input>
				<port id="0" precision="FP16">
					<dim>320</dim>
					<dim>128</dim>
					<dim>1</dim>
					<dim>1</dim>
				</port>
			</input>
			<output>
				<port id="1" precision="FP32">
					<dim>320</dim>
					<dim>128</dim>
					<dim>1</dim>
					<dim>1</dim>
				</port>
			</output>
		</layer>
		<layer id="161" name="Multiply_441145" type="Convolution" version="opset1">
			<data strides="1, 1" dilations="1, 1" pads_begin="0, 0" pads_end="0, 0" auto_pad="same_upper" />
			<input>
				<port id="0" precision="FP32">
					<dim>-1</dim>
					<dim>128</dim>
					<dim>128</dim>
					<dim>128</dim>
				</port>
				<port id="1" precision="FP32">
					<dim>320</dim>
					<dim>128</dim>
					<dim>1</dim>
					<dim>1</dim>
				</port>
			</input>
			<output>
				<port id="2" precision="FP32">
					<dim>-1</dim>
					<dim>320</dim>
					<dim>128</dim>
					<dim>128</dim>
				</port>
			</output>
		</layer>
		<layer id="162" name="Constant_441147_compressed" type="Const" version="opset1">
			<data element_type="f16" shape="1, 320, 1, 1" offset="1125495" size="640" />
			<output>
				<port id="0" precision="FP16">
					<dim>1</dim>
					<dim>320</dim>
					<dim>1</dim>
					<dim>1</dim>
				</port>
			</output>
		</layer>
		<layer id="163" name="Constant_441147" type="Convert" version="opset1">
			<data destination_type="f32" />
			<rt_info>
				<attribute name="decompression" version="0" />
			</rt_info>
			<input>
				<port id="0" precision="FP16">
					<dim>1</dim>
					<dim>320</dim>
					<dim>1</dim>
					<dim>1</dim>
				</port>
			</input>
			<output>
				<port id="1" precision="FP32">
					<dim>1</dim>
					<dim>320</dim>
					<dim>1</dim>
					<dim>1</dim>
				</port>
			</output>
		</layer>
		<layer id="164" name="Transpose_263055" type="Add" version="opset1">
			<data auto_broadcast="numpy" />
			<input>
				<port id="0" precision="FP32">
					<dim>-1</dim>
					<dim>320</dim>
					<dim>128</dim>
					<dim>128</dim>
				</port>
				<port id="1" precision="FP32">
					<dim>1</dim>
					<dim>320</dim>
					<dim>1</dim>
					<dim>1</dim>
				</port>
			</input>
			<output>
				<port id="2" precision="FP32">
					<dim>-1</dim>
					<dim>320</dim>
					<dim>128</dim>
					<dim>128</dim>
				</port>
			</output>
		</layer>
		<layer id="165" name="Transpose_263059" type="Add" version="opset1">
			<data auto_broadcast="numpy" />
			<input>
				<port id="0" precision="FP32">
					<dim>-1</dim>
					<dim>320</dim>
					<dim>128</dim>
					<dim>128</dim>
				</port>
				<port id="1" precision="FP32">
					<dim>-1</dim>
					<dim>320</dim>
					<dim>128</dim>
					<dim>128</dim>
				</port>
			</input>
			<output>
				<port id="2" precision="FP32">
					<dim>-1</dim>
					<dim>320</dim>
					<dim>128</dim>
					<dim>128</dim>
				</port>
			</output>
		</layer>
		<layer id="166" name="Transpose_263061" type="ReLU" version="opset1">
			<input>
				<port id="0" precision="FP32">
					<dim>-1</dim>
					<dim>320</dim>
					<dim>128</dim>
					<dim>128</dim>
				</port>
			</input>
			<output>
				<port id="1" precision="FP32">
					<dim>-1</dim>
					<dim>320</dim>
					<dim>128</dim>
					<dim>128</dim>
				</port>
			</output>
		</layer>
		<layer id="167" name="Multiply_442431_compressed" type="Const" version="opset1">
			<data element_type="f16" shape="32, 320, 1, 1" offset="1126135" size="20480" />
			<output>
				<port id="0" precision="FP16">
					<dim>32</dim>
					<dim>320</dim>
					<dim>1</dim>
					<dim>1</dim>
				</port>
			</output>
		</layer>
		<layer id="168" name="Multiply_442431" type="Convert" version="opset1">
			<data destination_type="f32" />
			<rt_info>
				<attribute name="decompression" version="0" />
			</rt_info>
			<input>
				<port id="0" precision="FP16">
					<dim>32</dim>
					<dim>320</dim>
					<dim>1</dim>
					<dim>1</dim>
				</port>
			</input>
			<output>
				<port id="1" precision="FP32">
					<dim>32</dim>
					<dim>320</dim>
					<dim>1</dim>
					<dim>1</dim>
				</port>
			</output>
		</layer>
		<layer id="169" name="Multiply_441149" type="Convolution" version="opset1">
			<data strides="1, 1" dilations="1, 1" pads_begin="0, 0" pads_end="0, 0" auto_pad="same_upper" />
			<input>
				<port id="0" precision="FP32">
					<dim>-1</dim>
					<dim>320</dim>
					<dim>128</dim>
					<dim>128</dim>
				</port>
				<port id="1" precision="FP32">
					<dim>32</dim>
					<dim>320</dim>
					<dim>1</dim>
					<dim>1</dim>
				</port>
			</input>
			<output>
				<port id="2" precision="FP32">
					<dim>-1</dim>
					<dim>32</dim>
					<dim>128</dim>
					<dim>128</dim>
				</port>
			</output>
		</layer>
		<layer id="170" name="Constant_441154_compressed" type="Const" version="opset1">
			<data element_type="f16" shape="1, 32, 1, 1" offset="1146615" size="64" />
			<output>
				<port id="0" precision="FP16">
					<dim>1</dim>
					<dim>32</dim>
					<dim>1</dim>
					<dim>1</dim>
				</port>
			</output>
		</layer>
		<layer id="171" name="Constant_441154" type="Convert" version="opset1">
			<data destination_type="f32" />
			<rt_info>
				<attribute name="decompression" version="0" />
			</rt_info>
			<input>
				<port id="0" precision="FP16">
					<dim>1</dim>
					<dim>32</dim>
					<dim>1</dim>
					<dim>1</dim>
				</port>
			</input>
			<output>
				<port id="1" precision="FP32">
					<dim>1</dim>
					<dim>32</dim>
					<dim>1</dim>
					<dim>1</dim>
				</port>
			</output>
		</layer>
		<layer id="172" name="Transpose_263085" type="Add" version="opset1">
			<data auto_broadcast="numpy" />
			<input>
				<port id="0" precision="FP32">
					<dim>-1</dim>
					<dim>32</dim>
					<dim>128</dim>
					<dim>128</dim>
				</port>
				<port id="1" precision="FP32">
					<dim>1</dim>
					<dim>32</dim>
					<dim>1</dim>
					<dim>1</dim>
				</port>
			</input>
			<output>
				<port id="2" precision="FP32">
					<dim>-1</dim>
					<dim>32</dim>
					<dim>128</dim>
					<dim>128</dim>
				</port>
			</output>
		</layer>
		<layer id="173" name="Transpose_263087" type="ReLU" version="opset1">
			<input>
				<port id="0" precision="FP32">
					<dim>-1</dim>
					<dim>32</dim>
					<dim>128</dim>
					<dim>128</dim>
				</port>
			</input>
			<output>
				<port id="1" precision="FP32">
					<dim>-1</dim>
					<dim>32</dim>
					<dim>128</dim>
					<dim>128</dim>
				</port>
			</output>
		</layer>
		<layer id="174" name="Multiply_442437_compressed" type="Const" version="opset1">
			<data element_type="f16" shape="32, 320, 1, 1" offset="1146679" size="20480" />
			<output>
				<port id="0" precision="FP16">
					<dim>32</dim>
					<dim>320</dim>
					<dim>1</dim>
					<dim>1</dim>
				</port>
			</output>
		</layer>
		<layer id="175" name="Multiply_442437" type="Convert" version="opset1">
			<data destination_type="f32" />
			<rt_info>
				<attribute name="decompression" version="0" />
			</rt_info>
			<input>
				<port id="0" precision="FP16">
					<dim>32</dim>
					<dim>320</dim>
					<dim>1</dim>
					<dim>1</dim>
				</port>
			</input>
			<output>
				<port id="1" precision="FP32">
					<dim>32</dim>
					<dim>320</dim>
					<dim>1</dim>
					<dim>1</dim>
				</port>
			</output>
		</layer>
		<layer id="176" name="Multiply_441156" type="Convolution" version="opset1">
			<data strides="1, 1" dilations="1, 1" pads_begin="0, 0" pads_end="0, 0" auto_pad="same_upper" />
			<input>
				<port id="0" precision="FP32">
					<dim>-1</dim>
					<dim>320</dim>
					<dim>128</dim>
					<dim>128</dim>
				</port>
				<port id="1" precision="FP32">
					<dim>32</dim>
					<dim>320</dim>
					<dim>1</dim>
					<dim>1</dim>
				</port>
			</input>
			<output>
				<port id="2" precision="FP32">
					<dim>-1</dim>
					<dim>32</dim>
					<dim>128</dim>
					<dim>128</dim>
				</port>
			</output>
		</layer>
		<layer id="177" name="Constant_441161_compressed" type="Const" version="opset1">
			<data element_type="f16" shape="1, 32, 1, 1" offset="1167159" size="64" />
			<output>
				<port id="0" precision="FP16">
					<dim>1</dim>
					<dim>32</dim>
					<dim>1</dim>
					<dim>1</dim>
				</port>
			</output>
		</layer>
		<layer id="178" name="Constant_441161" type="Convert" version="opset1">
			<data destination_type="f32" />
			<rt_info>
				<attribute name="decompression" version="0" />
			</rt_info>
			<input>
				<port id="0" precision="FP16">
					<dim>1</dim>
					<dim>32</dim>
					<dim>1</dim>
					<dim>1</dim>
				</port>
			</input>
			<output>
				<port id="1" precision="FP32">
					<dim>1</dim>
					<dim>32</dim>
					<dim>1</dim>
					<dim>1</dim>
				</port>
			</output>
		</layer>
		<layer id="179" name="Transpose_263111" type="Add" version="opset1">
			<data auto_broadcast="numpy" />
			<input>
				<port id="0" precision="FP32">
					<dim>-1</dim>
					<dim>32</dim>
					<dim>128</dim>
					<dim>128</dim>
				</port>
				<port id="1" precision="FP32">
					<dim>1</dim>
					<dim>32</dim>
					<dim>1</dim>
					<dim>1</dim>
				</port>
			</input>
			<output>
				<port id="2" precision="FP32">
					<dim>-1</dim>
					<dim>32</dim>
					<dim>128</dim>
					<dim>128</dim>
				</port>
			</output>
		</layer>
		<layer id="180" name="Transpose_263113" type="ReLU" version="opset1">
			<input>
				<port id="0" precision="FP32">
					<dim>-1</dim>
					<dim>32</dim>
					<dim>128</dim>
					<dim>128</dim>
				</port>
			</input>
			<output>
				<port id="1" precision="FP32">
					<dim>-1</dim>
					<dim>32</dim>
					<dim>128</dim>
					<dim>128</dim>
				</port>
			</output>
		</layer>
		<layer id="181" name="Multiply_442443_compressed" type="Const" version="opset1">
			<data element_type="f16" shape="32, 32, 3, 3" offset="1167223" size="18432" />
			<output>
				<port id="0" precision="FP16">
					<dim>32</dim>
					<dim>32</dim>
					<dim>3</dim>
					<dim>3</dim>
				</port>
			</output>
		</layer>
		<layer id="182" name="Multiply_442443" type="Convert" version="opset1">
			<data destination_type="f32" />
			<rt_info>
				<attribute name="decompression" version="0" />
			</rt_info>
			<input>
				<port id="0" precision="FP16">
					<dim>32</dim>
					<dim>32</dim>
					<dim>3</dim>
					<dim>3</dim>
				</port>
			</input>
			<output>
				<port id="1" precision="FP32">
					<dim>32</dim>
					<dim>32</dim>
					<dim>3</dim>
					<dim>3</dim>
				</port>
			</output>
		</layer>
		<layer id="183" name="Multiply_441163" type="Convolution" version="opset1">
			<data strides="1, 1" dilations="1, 1" pads_begin="0, 0" pads_end="0, 0" auto_pad="same_upper" />
			<input>
				<port id="0" precision="FP32">
					<dim>-1</dim>
					<dim>32</dim>
					<dim>128</dim>
					<dim>128</dim>
				</port>
				<port id="1" precision="FP32">
					<dim>32</dim>
					<dim>32</dim>
					<dim>3</dim>
					<dim>3</dim>
				</port>
			</input>
			<output>
				<port id="2" precision="FP32">
					<dim>-1</dim>
					<dim>32</dim>
					<dim>128</dim>
					<dim>128</dim>
				</port>
			</output>
		</layer>
		<layer id="184" name="Constant_441168_compressed" type="Const" version="opset1">
			<data element_type="f16" shape="1, 32, 1, 1" offset="1185655" size="64" />
			<output>
				<port id="0" precision="FP16">
					<dim>1</dim>
					<dim>32</dim>
					<dim>1</dim>
					<dim>1</dim>
				</port>
			</output>
		</layer>
		<layer id="185" name="Constant_441168" type="Convert" version="opset1">
			<data destination_type="f32" />
			<rt_info>
				<attribute name="decompression" version="0" />
			</rt_info>
			<input>
				<port id="0" precision="FP16">
					<dim>1</dim>
					<dim>32</dim>
					<dim>1</dim>
					<dim>1</dim>
				</port>
			</input>
			<output>
				<port id="1" precision="FP32">
					<dim>1</dim>
					<dim>32</dim>
					<dim>1</dim>
					<dim>1</dim>
				</port>
			</output>
		</layer>
		<layer id="186" name="Transpose_263137" type="Add" version="opset1">
			<data auto_broadcast="numpy" />
			<input>
				<port id="0" precision="FP32">
					<dim>-1</dim>
					<dim>32</dim>
					<dim>128</dim>
					<dim>128</dim>
				</port>
				<port id="1" precision="FP32">
					<dim>1</dim>
					<dim>32</dim>
					<dim>1</dim>
					<dim>1</dim>
				</port>
			</input>
			<output>
				<port id="2" precision="FP32">
					<dim>-1</dim>
					<dim>32</dim>
					<dim>128</dim>
					<dim>128</dim>
				</port>
			</output>
		</layer>
		<layer id="187" name="Transpose_263139" type="ReLU" version="opset1">
			<input>
				<port id="0" precision="FP32">
					<dim>-1</dim>
					<dim>32</dim>
					<dim>128</dim>
					<dim>128</dim>
				</port>
			</input>
			<output>
				<port id="1" precision="FP32">
					<dim>-1</dim>
					<dim>32</dim>
					<dim>128</dim>
					<dim>128</dim>
				</port>
			</output>
		</layer>
		<layer id="188" name="Multiply_442449_compressed" type="Const" version="opset1">
			<data element_type="f16" shape="32, 320, 1, 1" offset="1185719" size="20480" />
			<output>
				<port id="0" precision="FP16">
					<dim>32</dim>
					<dim>320</dim>
					<dim>1</dim>
					<dim>1</dim>
				</port>
			</output>
		</layer>
		<layer id="189" name="Multiply_442449" type="Convert" version="opset1">
			<data destination_type="f32" />
			<rt_info>
				<attribute name="decompression" version="0" />
			</rt_info>
			<input>
				<port id="0" precision="FP16">
					<dim>32</dim>
					<dim>320</dim>
					<dim>1</dim>
					<dim>1</dim>
				</port>
			</input>
			<output>
				<port id="1" precision="FP32">
					<dim>32</dim>
					<dim>320</dim>
					<dim>1</dim>
					<dim>1</dim>
				</port>
			</output>
		</layer>
		<layer id="190" name="Multiply_441170" type="Convolution" version="opset1">
			<data strides="1, 1" dilations="1, 1" pads_begin="0, 0" pads_end="0, 0" auto_pad="same_upper" />
			<input>
				<port id="0" precision="FP32">
					<dim>-1</dim>
					<dim>320</dim>
					<dim>128</dim>
					<dim>128</dim>
				</port>
				<port id="1" precision="FP32">
					<dim>32</dim>
					<dim>320</dim>
					<dim>1</dim>
					<dim>1</dim>
				</port>
			</input>
			<output>
				<port id="2" precision="FP32">
					<dim>-1</dim>
					<dim>32</dim>
					<dim>128</dim>
					<dim>128</dim>
				</port>
			</output>
		</layer>
		<layer id="191" name="Constant_441175_compressed" type="Const" version="opset1">
			<data element_type="f16" shape="1, 32, 1, 1" offset="1206199" size="64" />
			<output>
				<port id="0" precision="FP16">
					<dim>1</dim>
					<dim>32</dim>
					<dim>1</dim>
					<dim>1</dim>
				</port>
			</output>
		</layer>
		<layer id="192" name="Constant_441175" type="Convert" version="opset1">
			<data destination_type="f32" />
			<rt_info>
				<attribute name="decompression" version="0" />
			</rt_info>
			<input>
				<port id="0" precision="FP16">
					<dim>1</dim>
					<dim>32</dim>
					<dim>1</dim>
					<dim>1</dim>
				</port>
			</input>
			<output>
				<port id="1" precision="FP32">
					<dim>1</dim>
					<dim>32</dim>
					<dim>1</dim>
					<dim>1</dim>
				</port>
			</output>
		</layer>
		<layer id="193" name="Transpose_263163" type="Add" version="opset1">
			<data auto_broadcast="numpy" />
			<input>
				<port id="0" precision="FP32">
					<dim>-1</dim>
					<dim>32</dim>
					<dim>128</dim>
					<dim>128</dim>
				</port>
				<port id="1" precision="FP32">
					<dim>1</dim>
					<dim>32</dim>
					<dim>1</dim>
					<dim>1</dim>
				</port>
			</input>
			<output>
				<port id="2" precision="FP32">
					<dim>-1</dim>
					<dim>32</dim>
					<dim>128</dim>
					<dim>128</dim>
				</port>
			</output>
		</layer>
		<layer id="194" name="Transpose_263165" type="ReLU" version="opset1">
			<input>
				<port id="0" precision="FP32">
					<dim>-1</dim>
					<dim>32</dim>
					<dim>128</dim>
					<dim>128</dim>
				</port>
			</input>
			<output>
				<port id="1" precision="FP32">
					<dim>-1</dim>
					<dim>32</dim>
					<dim>128</dim>
					<dim>128</dim>
				</port>
			</output>
		</layer>
		<layer id="195" name="Multiply_442455_compressed" type="Const" version="opset1">
			<data element_type="f16" shape="48, 32, 3, 3" offset="1206263" size="27648" />
			<output>
				<port id="0" precision="FP16">
					<dim>48</dim>
					<dim>32</dim>
					<dim>3</dim>
					<dim>3</dim>
				</port>
			</output>
		</layer>
		<layer id="196" name="Multiply_442455" type="Convert" version="opset1">
			<data destination_type="f32" />
			<rt_info>
				<attribute name="decompression" version="0" />
			</rt_info>
			<input>
				<port id="0" precision="FP16">
					<dim>48</dim>
					<dim>32</dim>
					<dim>3</dim>
					<dim>3</dim>
				</port>
			</input>
			<output>
				<port id="1" precision="FP32">
					<dim>48</dim>
					<dim>32</dim>
					<dim>3</dim>
					<dim>3</dim>
				</port>
			</output>
		</layer>
		<layer id="197" name="Multiply_441177" type="Convolution" version="opset1">
			<data strides="1, 1" dilations="1, 1" pads_begin="0, 0" pads_end="0, 0" auto_pad="same_upper" />
			<input>
				<port id="0" precision="FP32">
					<dim>-1</dim>
					<dim>32</dim>
					<dim>128</dim>
					<dim>128</dim>
				</port>
				<port id="1" precision="FP32">
					<dim>48</dim>
					<dim>32</dim>
					<dim>3</dim>
					<dim>3</dim>
				</port>
			</input>
			<output>
				<port id="2" precision="FP32">
					<dim>-1</dim>
					<dim>48</dim>
					<dim>128</dim>
					<dim>128</dim>
				</port>
			</output>
		</layer>
		<layer id="198" name="Constant_441182_compressed" type="Const" version="opset1">
			<data element_type="f16" shape="1, 48, 1, 1" offset="1233911" size="96" />
			<output>
				<port id="0" precision="FP16">
					<dim>1</dim>
					<dim>48</dim>
					<dim>1</dim>
					<dim>1</dim>
				</port>
			</output>
		</layer>
		<layer id="199" name="Constant_441182" type="Convert" version="opset1">
			<data destination_type="f32" />
			<rt_info>
				<attribute name="decompression" version="0" />
			</rt_info>
			<input>
				<port id="0" precision="FP16">
					<dim>1</dim>
					<dim>48</dim>
					<dim>1</dim>
					<dim>1</dim>
				</port>
			</input>
			<output>
				<port id="1" precision="FP32">
					<dim>1</dim>
					<dim>48</dim>
					<dim>1</dim>
					<dim>1</dim>
				</port>
			</output>
		</layer>
		<layer id="200" name="Transpose_263189" type="Add" version="opset1">
			<data auto_broadcast="numpy" />
			<input>
				<port id="0" precision="FP32">
					<dim>-1</dim>
					<dim>48</dim>
					<dim>128</dim>
					<dim>128</dim>
				</port>
				<port id="1" precision="FP32">
					<dim>1</dim>
					<dim>48</dim>
					<dim>1</dim>
					<dim>1</dim>
				</port>
			</input>
			<output>
				<port id="2" precision="FP32">
					<dim>-1</dim>
					<dim>48</dim>
					<dim>128</dim>
					<dim>128</dim>
				</port>
			</output>
		</layer>
		<layer id="201" name="Transpose_263191" type="ReLU" version="opset1">
			<input>
				<port id="0" precision="FP32">
					<dim>-1</dim>
					<dim>48</dim>
					<dim>128</dim>
					<dim>128</dim>
				</port>
			</input>
			<output>
				<port id="1" precision="FP32">
					<dim>-1</dim>
					<dim>48</dim>
					<dim>128</dim>
					<dim>128</dim>
				</port>
			</output>
		</layer>
		<layer id="202" name="Multiply_442461_compressed" type="Const" version="opset1">
			<data element_type="f16" shape="64, 48, 3, 3" offset="1234007" size="55296" />
			<output>
				<port id="0" precision="FP16">
					<dim>64</dim>
					<dim>48</dim>
					<dim>3</dim>
					<dim>3</dim>
				</port>
			</output>
		</layer>
		<layer id="203" name="Multiply_442461" type="Convert" version="opset1">
			<data destination_type="f32" />
			<rt_info>
				<attribute name="decompression" version="0" />
			</rt_info>
			<input>
				<port id="0" precision="FP16">
					<dim>64</dim>
					<dim>48</dim>
					<dim>3</dim>
					<dim>3</dim>
				</port>
			</input>
			<output>
				<port id="1" precision="FP32">
					<dim>64</dim>
					<dim>48</dim>
					<dim>3</dim>
					<dim>3</dim>
				</port>
			</output>
		</layer>
		<layer id="204" name="Multiply_441184" type="Convolution" version="opset1">
			<data strides="1, 1" dilations="1, 1" pads_begin="0, 0" pads_end="0, 0" auto_pad="same_upper" />
			<input>
				<port id="0" precision="FP32">
					<dim>-1</dim>
					<dim>48</dim>
					<dim>128</dim>
					<dim>128</dim>
				</port>
				<port id="1" precision="FP32">
					<dim>64</dim>
					<dim>48</dim>
					<dim>3</dim>
					<dim>3</dim>
				</port>
			</input>
			<output>
				<port id="2" precision="FP32">
					<dim>-1</dim>
					<dim>64</dim>
					<dim>128</dim>
					<dim>128</dim>
				</port>
			</output>
		</layer>
		<layer id="205" name="Constant_441189_compressed" type="Const" version="opset1">
			<data element_type="f16" shape="1, 64, 1, 1" offset="1289303" size="128" />
			<output>
				<port id="0" precision="FP16">
					<dim>1</dim>
					<dim>64</dim>
					<dim>1</dim>
					<dim>1</dim>
				</port>
			</output>
		</layer>
		<layer id="206" name="Constant_441189" type="Convert" version="opset1">
			<data destination_type="f32" />
			<rt_info>
				<attribute name="decompression" version="0" />
			</rt_info>
			<input>
				<port id="0" precision="FP16">
					<dim>1</dim>
					<dim>64</dim>
					<dim>1</dim>
					<dim>1</dim>
				</port>
			</input>
			<output>
				<port id="1" precision="FP32">
					<dim>1</dim>
					<dim>64</dim>
					<dim>1</dim>
					<dim>1</dim>
				</port>
			</output>
		</layer>
		<layer id="207" name="Transpose_263215" type="Add" version="opset1">
			<data auto_broadcast="numpy" />
			<input>
				<port id="0" precision="FP32">
					<dim>-1</dim>
					<dim>64</dim>
					<dim>128</dim>
					<dim>128</dim>
				</port>
				<port id="1" precision="FP32">
					<dim>1</dim>
					<dim>64</dim>
					<dim>1</dim>
					<dim>1</dim>
				</port>
			</input>
			<output>
				<port id="2" precision="FP32">
					<dim>-1</dim>
					<dim>64</dim>
					<dim>128</dim>
					<dim>128</dim>
				</port>
			</output>
		</layer>
		<layer id="208" name="Transpose_263217" type="ReLU" version="opset1">
			<input>
				<port id="0" precision="FP32">
					<dim>-1</dim>
					<dim>64</dim>
					<dim>128</dim>
					<dim>128</dim>
				</port>
			</input>
			<output>
				<port id="1" precision="FP32">
					<dim>-1</dim>
					<dim>64</dim>
					<dim>128</dim>
					<dim>128</dim>
				</port>
			</output>
		</layer>
		<layer id="209" name="Transpose_263223" type="Concat" version="opset1">
			<data axis="1" />
			<input>
				<port id="0" precision="FP32">
					<dim>-1</dim>
					<dim>32</dim>
					<dim>128</dim>
					<dim>128</dim>
				</port>
				<port id="1" precision="FP32">
					<dim>-1</dim>
					<dim>32</dim>
					<dim>128</dim>
					<dim>128</dim>
				</port>
				<port id="2" precision="FP32">
					<dim>-1</dim>
					<dim>64</dim>
					<dim>128</dim>
					<dim>128</dim>
				</port>
			</input>
			<output>
				<port id="3" precision="FP32">
					<dim>-1</dim>
					<dim>128</dim>
					<dim>128</dim>
					<dim>128</dim>
				</port>
			</output>
		</layer>
		<layer id="210" name="Multiply_442463_compressed" type="Const" version="opset1">
			<data element_type="f16" shape="320, 128, 1, 1" offset="1289431" size="81920" />
			<output>
				<port id="0" precision="FP16">
					<dim>320</dim>
					<dim>128</dim>
					<dim>1</dim>
					<dim>1</dim>
				</port>
			</output>
		</layer>
		<layer id="211" name="Multiply_442463" type="Convert" version="opset1">
			<data destination_type="f32" />
			<rt_info>
				<attribute name="decompression" version="0" />
			</rt_info>
			<input>
				<port id="0" precision="FP16">
					<dim>320</dim>
					<dim>128</dim>
					<dim>1</dim>
					<dim>1</dim>
				</port>
			</input>
			<output>
				<port id="1" precision="FP32">
					<dim>320</dim>
					<dim>128</dim>
					<dim>1</dim>
					<dim>1</dim>
				</port>
			</output>
		</layer>
		<layer id="212" name="Multiply_441191" type="Convolution" version="opset1">
			<data strides="1, 1" dilations="1, 1" pads_begin="0, 0" pads_end="0, 0" auto_pad="same_upper" />
			<input>
				<port id="0" precision="FP32">
					<dim>-1</dim>
					<dim>128</dim>
					<dim>128</dim>
					<dim>128</dim>
				</port>
				<port id="1" precision="FP32">
					<dim>320</dim>
					<dim>128</dim>
					<dim>1</dim>
					<dim>1</dim>
				</port>
			</input>
			<output>
				<port id="2" precision="FP32">
					<dim>-1</dim>
					<dim>320</dim>
					<dim>128</dim>
					<dim>128</dim>
				</port>
			</output>
		</layer>
		<layer id="213" name="Constant_441193_compressed" type="Const" version="opset1">
			<data element_type="f16" shape="1, 320, 1, 1" offset="1371351" size="640" />
			<output>
				<port id="0" precision="FP16">
					<dim>1</dim>
					<dim>320</dim>
					<dim>1</dim>
					<dim>1</dim>
				</port>
			</output>
		</layer>
		<layer id="214" name="Constant_441193" type="Convert" version="opset1">
			<data destination_type="f32" />
			<rt_info>
				<attribute name="decompression" version="0" />
			</rt_info>
			<input>
				<port id="0" precision="FP16">
					<dim>1</dim>
					<dim>320</dim>
					<dim>1</dim>
					<dim>1</dim>
				</port>
			</input>
			<output>
				<port id="1" precision="FP32">
					<dim>1</dim>
					<dim>320</dim>
					<dim>1</dim>
					<dim>1</dim>
				</port>
			</output>
		</layer>
		<layer id="215" name="Transpose_263235" type="Add" version="opset1">
			<data auto_broadcast="numpy" />
			<input>
				<port id="0" precision="FP32">
					<dim>-1</dim>
					<dim>320</dim>
					<dim>128</dim>
					<dim>128</dim>
				</port>
				<port id="1" precision="FP32">
					<dim>1</dim>
					<dim>320</dim>
					<dim>1</dim>
					<dim>1</dim>
				</port>
			</input>
			<output>
				<port id="2" precision="FP32">
					<dim>-1</dim>
					<dim>320</dim>
					<dim>128</dim>
					<dim>128</dim>
				</port>
			</output>
		</layer>
		<layer id="216" name="Transpose_263239" type="Add" version="opset1">
			<data auto_broadcast="numpy" />
			<input>
				<port id="0" precision="FP32">
					<dim>-1</dim>
					<dim>320</dim>
					<dim>128</dim>
					<dim>128</dim>
				</port>
				<port id="1" precision="FP32">
					<dim>-1</dim>
					<dim>320</dim>
					<dim>128</dim>
					<dim>128</dim>
				</port>
			</input>
			<output>
				<port id="2" precision="FP32">
					<dim>-1</dim>
					<dim>320</dim>
					<dim>128</dim>
					<dim>128</dim>
				</port>
			</output>
		</layer>
		<layer id="217" name="Transpose_263241" type="ReLU" version="opset1">
			<input>
				<port id="0" precision="FP32">
					<dim>-1</dim>
					<dim>320</dim>
					<dim>128</dim>
					<dim>128</dim>
				</port>
			</input>
			<output>
				<port id="1" precision="FP32">
					<dim>-1</dim>
					<dim>320</dim>
					<dim>128</dim>
					<dim>128</dim>
				</port>
			</output>
		</layer>
		<layer id="218" name="Multiply_442469_compressed" type="Const" version="opset1">
			<data element_type="f16" shape="32, 320, 1, 1" offset="1371991" size="20480" />
			<output>
				<port id="0" precision="FP16">
					<dim>32</dim>
					<dim>320</dim>
					<dim>1</dim>
					<dim>1</dim>
				</port>
			</output>
		</layer>
		<layer id="219" name="Multiply_442469" type="Convert" version="opset1">
			<data destination_type="f32" />
			<rt_info>
				<attribute name="decompression" version="0" />
			</rt_info>
			<input>
				<port id="0" precision="FP16">
					<dim>32</dim>
					<dim>320</dim>
					<dim>1</dim>
					<dim>1</dim>
				</port>
			</input>
			<output>
				<port id="1" precision="FP32">
					<dim>32</dim>
					<dim>320</dim>
					<dim>1</dim>
					<dim>1</dim>
				</port>
			</output>
		</layer>
		<layer id="220" name="Multiply_441195" type="Convolution" version="opset1">
			<data strides="1, 1" dilations="1, 1" pads_begin="0, 0" pads_end="0, 0" auto_pad="same_upper" />
			<input>
				<port id="0" precision="FP32">
					<dim>-1</dim>
					<dim>320</dim>
					<dim>128</dim>
					<dim>128</dim>
				</port>
				<port id="1" precision="FP32">
					<dim>32</dim>
					<dim>320</dim>
					<dim>1</dim>
					<dim>1</dim>
				</port>
			</input>
			<output>
				<port id="2" precision="FP32">
					<dim>-1</dim>
					<dim>32</dim>
					<dim>128</dim>
					<dim>128</dim>
				</port>
			</output>
		</layer>
		<layer id="221" name="Constant_441200_compressed" type="Const" version="opset1">
			<data element_type="f16" shape="1, 32, 1, 1" offset="1392471" size="64" />
			<output>
				<port id="0" precision="FP16">
					<dim>1</dim>
					<dim>32</dim>
					<dim>1</dim>
					<dim>1</dim>
				</port>
			</output>
		</layer>
		<layer id="222" name="Constant_441200" type="Convert" version="opset1">
			<data destination_type="f32" />
			<rt_info>
				<attribute name="decompression" version="0" />
			</rt_info>
			<input>
				<port id="0" precision="FP16">
					<dim>1</dim>
					<dim>32</dim>
					<dim>1</dim>
					<dim>1</dim>
				</port>
			</input>
			<output>
				<port id="1" precision="FP32">
					<dim>1</dim>
					<dim>32</dim>
					<dim>1</dim>
					<dim>1</dim>
				</port>
			</output>
		</layer>
		<layer id="223" name="Transpose_263265" type="Add" version="opset1">
			<data auto_broadcast="numpy" />
			<input>
				<port id="0" precision="FP32">
					<dim>-1</dim>
					<dim>32</dim>
					<dim>128</dim>
					<dim>128</dim>
				</port>
				<port id="1" precision="FP32">
					<dim>1</dim>
					<dim>32</dim>
					<dim>1</dim>
					<dim>1</dim>
				</port>
			</input>
			<output>
				<port id="2" precision="FP32">
					<dim>-1</dim>
					<dim>32</dim>
					<dim>128</dim>
					<dim>128</dim>
				</port>
			</output>
		</layer>
		<layer id="224" name="Transpose_263267" type="ReLU" version="opset1">
			<input>
				<port id="0" precision="FP32">
					<dim>-1</dim>
					<dim>32</dim>
					<dim>128</dim>
					<dim>128</dim>
				</port>
			</input>
			<output>
				<port id="1" precision="FP32">
					<dim>-1</dim>
					<dim>32</dim>
					<dim>128</dim>
					<dim>128</dim>
				</port>
			</output>
		</layer>
…
		<edge from-layer="2500" from-port="0" to-layer="2501" to-port="0" />
		<edge from-layer="2501" from-port="2" to-layer="2503" to-port="0" />
		<edge from-layer="2502" from-port="0" to-layer="2503" to-port="1" />
		<edge from-layer="2503" from-port="2" to-layer="2504" to-port="0" />
		<edge from-layer="2504" from-port="2" to-layer="2511" to-port="1" />
		<edge from-layer="2505" from-port="2" to-layer="2511" to-port="2" />
		<edge from-layer="2506" from-port="0" to-layer="2509" to-port="1" />
		<edge from-layer="2507" from-port="0" to-layer="2509" to-port="2" />
		<edge from-layer="2508" from-port="0" to-layer="2509" to-port="3" />
		<edge from-layer="2509" from-port="4" to-layer="2510" to-port="0" />
		<edge from-layer="2510" from-port="2" to-layer="2511" to-port="3" />
		<edge from-layer="2511" from-port="4" to-layer="2512" to-port="0" />
		<edge from-layer="2512" from-port="1" to-layer="2529" to-port="16" />
		<edge from-layer="2513" from-port="0" to-layer="2522" to-port="0" />
		<edge from-layer="2514" from-port="0" to-layer="2517" to-port="1" />
		<edge from-layer="2515" from-port="0" to-layer="2517" to-port="2" />
		<edge from-layer="2516" from-port="0" to-layer="2517" to-port="3" />
		<edge from-layer="2517" from-port="4" to-layer="2519" to-port="0" />
		<edge from-layer="2518" from-port="0" to-layer="2519" to-port="1" />
		<edge from-layer="2519" from-port="2" to-layer="2521" to-port="0" />
		<edge from-layer="2520" from-port="0" to-layer="2521" to-port="1" />
		<edge from-layer="2521" from-port="2" to-layer="2522" to-port="1" />
		<edge from-layer="2522" from-port="2" to-layer="2523" to-port="0" />
		<edge from-layer="2523" from-port="1" to-layer="2529" to-port="17" />
		<edge from-layer="2524" from-port="1" to-layer="2527" to-port="0" />
		<edge from-layer="2525" from-port="0" to-layer="2527" to-port="1" />
		<edge from-layer="2526" from-port="0" to-layer="2527" to-port="2" />
		<edge from-layer="2526" from-port="0" to-layer="2527" to-port="3" />
		<edge from-layer="2527" from-port="4" to-layer="2528" to-port="1" />
		<edge from-layer="2528" from-port="2" to-layer="2529" to-port="19" />
		<edge from-layer="2528" from-port="2" to-layer="3144" to-port="0" />
		<edge from-layer="2529" from-port="23" to-layer="3110" to-port="0" />
		<edge from-layer="2529" from-port="22" to-layer="3092" to-port="0" />
		<edge from-layer="2529" from-port="22" to-layer="3098" to-port="0" />
		<edge from-layer="2529" from-port="23" to-layer="3104" to-port="0" />
		<edge from-layer="2529" from-port="21" to-layer="2530" to-port="0" />
		<edge from-layer="2529" from-port="21" to-layer="2536" to-port="0" />
		<edge from-layer="2529" from-port="24" to-layer="2538" to-port="0" />
		<edge from-layer="2529" from-port="24" to-layer="2544" to-port="0" />
		<edge from-layer="2529" from-port="20" to-layer="2549" to-port="0" />
		<edge from-layer="2529" from-port="25" to-layer="3146" to-port="0" />
		<edge from-layer="2529" from-port="25" to-layer="3150" to-port="0" />
		<edge from-layer="2529" from-port="20" to-layer="2555" to-port="0" />
		<edge from-layer="2530" from-port="1" to-layer="2533" to-port="0" />
		<edge from-layer="2531" from-port="0" to-layer="2533" to-port="1" />
		<edge from-layer="2532" from-port="0" to-layer="2533" to-port="2" />
		<edge from-layer="2532" from-port="0" to-layer="2533" to-port="3" />
		<edge from-layer="2533" from-port="4" to-layer="2535" to-port="0" />
		<edge from-layer="2534" from-port="0" to-layer="2535" to-port="1" />
		<edge from-layer="2535" from-port="2" to-layer="2536" to-port="1" />
		<edge from-layer="2536" from-port="2" to-layer="2537" to-port="0" />
		<edge from-layer="2538" from-port="1" to-layer="2541" to-port="0" />
		<edge from-layer="2539" from-port="0" to-layer="2541" to-port="1" />
		<edge from-layer="2540" from-port="0" to-layer="2541" to-port="2" />
		<edge from-layer="2540" from-port="0" to-layer="2541" to-port="3" />
		<edge from-layer="2541" from-port="4" to-layer="2543" to-port="0" />
		<edge from-layer="2542" from-port="0" to-layer="2543" to-port="1" />
		<edge from-layer="2543" from-port="2" to-layer="2544" to-port="1" />
		<edge from-layer="2544" from-port="2" to-layer="2545" to-port="0" />
		<edge from-layer="2546" from-port="0" to-layer="2547" to-port="1" />
		<edge from-layer="2547" from-port="2" to-layer="2583" to-port="0" />
		<edge from-layer="2548" from-port="0" to-layer="2561" to-port="0" />
		<edge from-layer="2549" from-port="1" to-layer="2552" to-port="0" />
		<edge from-layer="2550" from-port="0" to-layer="2552" to-port="1" />
		<edge from-layer="2551" from-port="0" to-layer="2552" to-port="2" />
		<edge from-layer="2551" from-port="0" to-layer="2552" to-port="3" />
		<edge from-layer="2552" from-port="4" to-layer="2554" to-port="0" />
		<edge from-layer="2553" from-port="0" to-layer="2554" to-port="1" />
		<edge from-layer="2554" from-port="2" to-layer="2555" to-port="1" />
		<edge from-layer="2555" from-port="2" to-layer="3103" to-port="0" />
		<edge from-layer="2555" from-port="2" to-layer="2556" to-port="0" />
		<edge from-layer="2555" from-port="2" to-layer="2578" to-port="0" />
		<edge from-layer="2556" from-port="1" to-layer="3083" to-port="0" />
		<edge from-layer="2556" from-port="1" to-layer="2560" to-port="0" />
		<edge from-layer="2556" from-port="1" to-layer="2566" to-port="0" />
		<edge from-layer="2556" from-port="1" to-layer="2589" to-port="0" />
		<edge from-layer="2557" from-port="0" to-layer="2560" to-port="1" />
		<edge from-layer="2558" from-port="0" to-layer="2560" to-port="2" />
		<edge from-layer="2559" from-port="0" to-layer="2560" to-port="3" />
		<edge from-layer="2560" from-port="4" to-layer="2561" to-port="1" />
		<edge from-layer="2561" from-port="2" to-layer="2571" to-port="0" />
		<edge from-layer="2562" from-port="0" to-layer="2568" to-port="0" />
		<edge from-layer="2563" from-port="0" to-layer="2566" to-port="1" />
		<edge from-layer="2564" from-port="0" to-layer="2566" to-port="2" />
		<edge from-layer="2565" from-port="0" to-layer="2566" to-port="3" />
		<edge from-layer="2566" from-port="4" to-layer="2568" to-port="1" />
		<edge from-layer="2567" from-port="0" to-layer="2568" to-port="2" />
		<edge from-layer="2568" from-port="3" to-layer="2570" to-port="0" />
		<edge from-layer="2569" from-port="0" to-layer="2570" to-port="1" />
		<edge from-layer="2570" from-port="2" to-layer="2571" to-port="1" />
		<edge from-layer="2571" from-port="2" to-layer="2573" to-port="0" />
		<edge from-layer="2572" from-port="0" to-layer="2573" to-port="1" />
		<edge from-layer="2573" from-port="2" to-layer="2575" to-port="0" />
		<edge from-layer="2574" from-port="0" to-layer="2575" to-port="1" />
		<edge from-layer="2575" from-port="2" to-layer="2576" to-port="0" />
		<edge from-layer="2576" from-port="1" to-layer="2579" to-port="0" />
		<edge from-layer="2577" from-port="0" to-layer="2578" to-port="1" />
		<edge from-layer="2578" from-port="2" to-layer="2579" to-port="1" />
		<edge from-layer="2579" from-port="2" to-layer="2582" to-port="0" />
		<edge from-layer="2580" from-port="0" to-layer="2582" to-port="1" />
		<edge from-layer="2581" from-port="0" to-layer="2582" to-port="2" />
		<edge from-layer="2582" from-port="3" to-layer="2583" to-port="1" />
		<edge from-layer="2583" from-port="2" to-layer="2585" to-port="0" />
		<edge from-layer="2584" from-port="0" to-layer="2585" to-port="1" />
		<edge from-layer="2585" from-port="2" to-layer="2590" to-port="0" />
		<edge from-layer="2585" from-port="2" to-layer="2596" to-port="0" />
		<edge from-layer="2586" from-port="0" to-layer="2589" to-port="1" />
		<edge from-layer="2587" from-port="0" to-layer="2589" to-port="2" />
		<edge from-layer="2588" from-port="0" to-layer="2589" to-port="3" />
		<edge from-layer="2589" from-port="4" to-layer="2595" to-port="0" />
		<edge from-layer="2590" from-port="1" to-layer="2594" to-port="0" />
		<edge from-layer="2591" from-port="0" to-layer="2594" to-port="1" />
		<edge from-layer="2592" from-port="0" to-layer="2594" to-port="2" />
		<edge from-layer="2593" from-port="0" to-layer="2594" to-port="3" />
		<edge from-layer="2594" from-port="4" to-layer="2595" to-port="1" />
		<edge from-layer="2595" from-port="2" to-layer="2596" to-port="1" />
		<edge from-layer="2596" from-port="2" to-layer="2597" to-port="0" />
		<edge from-layer="2596" from-port="2" to-layer="2610" to-port="0" />
		<edge from-layer="2597" from-port="1" to-layer="2601" to-port="0" />
		<edge from-layer="2598" from-port="0" to-layer="2601" to-port="1" />
		<edge from-layer="2599" from-port="0" to-layer="2601" to-port="2" />
		<edge from-layer="2600" from-port="0" to-layer="2601" to-port="3" />
		<edge from-layer="2601" from-port="4" to-layer="2603" to-port="0" />
		<edge from-layer="2602" from-port="0" to-layer="2603" to-port="1" />
		<edge from-layer="2603" from-port="2" to-layer="2605" to-port="0" />
		<edge from-layer="2604" from-port="0" to-layer="2605" to-port="1" />
		<edge from-layer="2605" from-port="2" to-layer="2609" to-port="0" />
		<edge from-layer="2606" from-port="0" to-layer="2609" to-port="1" />
		<edge from-layer="2607" from-port="0" to-layer="2609" to-port="2" />
		<edge from-layer="2608" from-port="0" to-layer="2609" to-port="3" />
		<edge from-layer="2609" from-port="4" to-layer="2610" to-port="1" />
		<edge from-layer="2610" from-port="2" to-layer="2612" to-port="0" />
		<edge from-layer="2611" from-port="0" to-layer="2612" to-port="1" />
		<edge from-layer="2612" from-port="2" to-layer="2613" to-port="0" />
		<edge from-layer="2613" from-port="1" to-layer="2616" to-port="0" />
		<edge from-layer="2613" from-port="1" to-layer="2630" to-port="0" />
		<edge from-layer="2613" from-port="1" to-layer="2644" to-port="0" />
		<edge from-layer="2613" from-port="1" to-layer="2663" to-port="0" />
		<edge from-layer="2614" from-port="0" to-layer="2615" to-port="0" />
		<edge from-layer="2615" from-port="1" to-layer="2616" to-port="1" />
		<edge from-layer="2616" from-port="2" to-layer="2619" to-port="0" />
		<edge from-layer="2617" from-port="0" to-layer="2618" to-port="0" />
		<edge from-layer="2618" from-port="1" to-layer="2619" to-port="1" />
		<edge from-layer="2619" from-port="2" to-layer="2620" to-port="0" />
		<edge from-layer="2620" from-port="1" to-layer="2623" to-port="0" />
		<edge from-layer="2621" from-port="0" to-layer="2622" to-port="0" />
		<edge from-layer="2622" from-port="1" to-layer="2623" to-port="1" />
		<edge from-layer="2623" from-port="2" to-layer="2626" to-port="0" />
		<edge from-layer="2624" from-port="0" to-layer="2625" to-port="0" />
		<edge from-layer="2625" from-port="1" to-layer="2626" to-port="1" />
		<edge from-layer="2626" from-port="2" to-layer="2627" to-port="0" />
		<edge from-layer="2627" from-port="1" to-layer="2664" to-port="0" />
		<edge from-layer="2628" from-port="0" to-layer="2629" to-port="0" />
		<edge from-layer="2629" from-port="1" to-layer="2630" to-port="1" />
		<edge from-layer="2630" from-port="2" to-layer="2633" to-port="0" />
		<edge from-layer="2631" from-port="0" to-layer="2632" to-port="0" />
		<edge from-layer="2632" from-port="1" to-layer="2633" to-port="1" />
		<edge from-layer="2633" from-port="2" to-layer="2634" to-port="0" />
		<edge from-layer="2634" from-port="1" to-layer="2637" to-port="0" />
		<edge from-layer="2635" from-port="0" to-layer="2636" to-port="0" />
		<edge from-layer="2636" from-port="1" to-layer="2637" to-port="1" />
		<edge from-layer="2637" from-port="2" to-layer="2640" to-port="0" />
		<edge from-layer="2638" from-port="0" to-layer="2639" to-port="0" />
		<edge from-layer="2639" from-port="1" to-layer="2640" to-port="1" />
		<edge from-layer="2640" from-port="2" to-layer="2641" to-port="0" />
		<edge from-layer="2641" from-port="1" to-layer="2664" to-port="1" />
		<edge from-layer="2642" from-port="0" to-layer="2643" to-port="0" />
		<edge from-layer="2643" from-port="1" to-layer="2644" to-port="1" />
		<edge from-layer="2644" from-port="2" to-layer="2647" to-port="0" />
		<edge from-layer="2645" from-port="0" to-layer="2646" to-port="0" />
		<edge from-layer="2646" from-port="1" to-layer="2647" to-port="1" />
		<edge from-layer="2647" from-port="2" to-layer="2648" to-port="0" />
		<edge from-layer="2648" from-port="1" to-layer="2651" to-port="0" />
		<edge from-layer="2649" from-port="0" to-layer="2650" to-port="0" />
		<edge from-layer="2650" from-port="1" to-layer="2651" to-port="1" />
		<edge from-layer="2651" from-port="2" to-layer="2654" to-port="0" />
		<edge from-layer="2652" from-port="0" to-layer="2653" to-port="0" />
		<edge from-layer="2653" from-port="1" to-layer="2654" to-port="1" />
		<edge from-layer="2654" from-port="2" to-layer="2655" to-port="0" />
		<edge from-layer="2655" from-port="1" to-layer="2658" to-port="0" />
		<edge from-layer="2656" from-port="0" to-layer="2657" to-port="0" />
		<edge from-layer="2657" from-port="1" to-layer="2658" to-port="1" />
		<edge from-layer="2658" from-port="2" to-layer="2661" to-port="0" />
		<edge from-layer="2659" from-port="0" to-layer="2660" to-port="0" />
		<edge from-layer="2660" from-port="1" to-layer="2661" to-port="1" />
		<edge from-layer="2661" from-port="2" to-layer="2662" to-port="0" />
		<edge from-layer="2662" from-port="1" to-layer="2664" to-port="2" />
		<edge from-layer="2663" from-port="1" to-layer="2664" to-port="3" />
		<edge from-layer="2664" from-port="4" to-layer="2667" to-port="0" />
		<edge from-layer="2664" from-port="4" to-layer="2674" to-port="0" />
		<edge from-layer="2664" from-port="4" to-layer="2700" to-port="0" />
		<edge from-layer="2665" from-port="0" to-layer="2666" to-port="0" />
		<edge from-layer="2666" from-port="1" to-layer="2667" to-port="1" />
		<edge from-layer="2667" from-port="2" to-layer="2670" to-port="0" />
		<edge from-layer="2668" from-port="0" to-layer="2669" to-port="0" />
		<edge from-layer="2669" from-port="1" to-layer="2670" to-port="1" />
		<edge from-layer="2670" from-port="2" to-layer="2671" to-port="0" />
		<edge from-layer="2671" from-port="1" to-layer="2693" to-port="0" />
		<edge from-layer="2672" from-port="0" to-layer="2673" to-port="0" />
		<edge from-layer="2673" from-port="1" to-layer="2674" to-port="1" />
		<edge from-layer="2674" from-port="2" to-layer="2677" to-port="0" />
		<edge from-layer="2675" from-port="0" to-layer="2676" to-port="0" />
		<edge from-layer="2676" from-port="1" to-layer="2677" to-port="1" />
		<edge from-layer="2677" from-port="2" to-layer="2678" to-port="0" />
		<edge from-layer="2678" from-port="1" to-layer="2681" to-port="0" />
		<edge from-layer="2679" from-port="0" to-layer="2680" to-port="0" />
		<edge from-layer="2680" from-port="1" to-layer="2681" to-port="1" />
		<edge from-layer="2681" from-port="2" to-layer="2684" to-port="0" />
		<edge from-layer="2682" from-port="0" to-layer="2683" to-port="0" />
		<edge from-layer="2683" from-port="1" to-layer="2684" to-port="1" />
		<edge from-layer="2684" from-port="2" to-layer="2685" to-port="0" />
		<edge from-layer="2685" from-port="1" to-layer="2688" to-port="0" />
		<edge from-layer="2686" from-port="0" to-layer="2687" to-port="0" />
		<edge from-layer="2687" from-port="1" to-layer="2688" to-port="1" />
		<edge from-layer="2688" from-port="2" to-layer="2691" to-port="0" />
		<edge from-layer="2689" from-port="0" to-layer="2690" to-port="0" />
		<edge from-layer="2690" from-port="1" to-layer="2691" to-port="1" />
		<edge from-layer="2691" from-port="2" to-layer="2692" to-port="0" />
		<edge from-layer="2692" from-port="1" to-layer="2693" to-port="1" />
		<edge from-layer="2693" from-port="2" to-layer="2696" to-port="0" />
		<edge from-layer="2694" from-port="0" to-layer="2695" to-port="0" />
		<edge from-layer="2695" from-port="1" to-layer="2696" to-port="1" />
		<edge from-layer="2696" from-port="2" to-layer="2699" to-port="0" />
		<edge from-layer="2697" from-port="0" to-layer="2698" to-port="0" />
		<edge from-layer="2698" from-port="1" to-layer="2699" to-port="1" />
		<edge from-layer="2699" from-port="2" to-layer="2700" to-port="1" />
		<edge from-layer="2700" from-port="2" to-layer="2701" to-port="0" />
		<edge from-layer="2701" from-port="1" to-layer="2704" to-port="0" />
		<edge from-layer="2701" from-port="1" to-layer="2711" to-port="0" />
		<edge from-layer="2701" from-port="1" to-layer="2737" to-port="0" />
		<edge from-layer="2702" from-port="0" to-layer="2703" to-port="0" />
		<edge from-layer="2703" from-port="1" to-layer="2704" to-port="1" />
		<edge from-layer="2704" from-port="2" to-layer="2707" to-port="0" />
		<edge from-layer="2705" from-port="0" to-layer="2706" to-port="0" />
		<edge from-layer="2706" from-port="1" to-layer="2707" to-port="1" />
		<edge from-layer="2707" from-port="2" to-layer="2708" to-port="0" />
		<edge from-layer="2708" from-port="1" to-layer="2730" to-port="0" />
		<edge from-layer="2709" from-port="0" to-layer="2710" to-port="0" />
		<edge from-layer="2710" from-port="1" to-layer="2711" to-port="1" />
		<edge from-layer="2711" from-port="2" to-layer="2714" to-port="0" />
		<edge from-layer="2712" from-port="0" to-layer="2713" to-port="0" />
		<edge from-layer="2713" from-port="1" to-layer="2714" to-port="1" />
		<edge from-layer="2714" from-port="2" to-layer="2715" to-port="0" />
		<edge from-layer="2715" from-port="1" to-layer="2718" to-port="0" />
		<edge from-layer="2716" from-port="0" to-layer="2717" to-port="0" />
		<edge from-layer="2717" from-port="1" to-layer="2718" to-port="1" />
		<edge from-layer="2718" from-port="2" to-layer="2721" to-port="0" />
		<edge from-layer="2719" from-port="0" to-layer="2720" to-port="0" />
		<edge from-layer="2720" from-port="1" to-layer="2721" to-port="1" />
		<edge from-layer="2721" from-port="2" to-layer="2722" to-port="0" />
		<edge from-layer="2722" from-port="1" to-layer="2725" to-port="0" />
		<edge from-layer="2723" from-port="0" to-layer="2724" to-port="0" />
		<edge from-layer="2724" from-port="1" to-layer="2725" to-port="1" />
		<edge from-layer="2725" from-port="2" to-layer="2728" to-port="0" />
		<edge from-layer="2726" from-port="0" to-layer="2727" to-port="0" />
		<edge from-layer="2727" from-port="1" to-layer="2728" to-port="1" />
		<edge from-layer="2728" from-port="2" to-layer="2729" to-port="0" />
		<edge from-layer="2729" from-port="1" to-layer="2730" to-port="1" />
		<edge from-layer="2730" from-port="2" to-layer="2733" to-port="0" />
		<edge from-layer="2731" from-port="0" to-layer="2732" to-port="0" />
		<edge from-layer="2732" from-port="1" to-layer="2733" to-port="1" />
		<edge from-layer="2733" from-port="2" to-layer="2736" to-port="0" />
		<edge from-layer="2734" from-port="0" to-layer="2735" to-port="0" />
		<edge from-layer="2735" from-port="1" to-layer="2736" to-port="1" />
		<edge from-layer="2736" from-port="2" to-layer="2737" to-port="1" />
		<edge from-layer="2737" from-port="2" to-layer="2738" to-port="0" />
		<edge from-layer="2738" from-port="1" to-layer="2741" to-port="0" />
		<edge from-layer="2738" from-port="1" to-layer="2748" to-port="0" />
		<edge from-layer="2738" from-port="1" to-layer="2774" to-port="0" />
		<edge from-layer="2739" from-port="0" to-layer="2740" to-port="0" />
		<edge from-layer="2740" from-port="1" to-layer="2741" to-port="1" />
		<edge from-layer="2741" from-port="2" to-layer="2744" to-port="0" />
		<edge from-layer="2742" from-port="0" to-layer="2743" to-port="0" />
		<edge from-layer="2743" from-port="1" to-layer="2744" to-port="1" />
		<edge from-layer="2744" from-port="2" to-layer="2745" to-port="0" />
		<edge from-layer="2745" from-port="1" to-layer="2767" to-port="0" />
		<edge from-layer="2746" from-port="0" to-layer="2747" to-port="0" />
		<edge from-layer="2747" from-port="1" to-layer="2748" to-port="1" />
		<edge from-layer="2748" from-port="2" to-layer="2751" to-port="0" />
		<edge from-layer="2749" from-port="0" to-layer="2750" to-port="0" />
		<edge from-layer="2750" from-port="1" to-layer="2751" to-port="1" />
		<edge from-layer="2751" from-port="2" to-layer="2752" to-port="0" />
		<edge from-layer="2752" from-port="1" to-layer="2755" to-port="0" />
		<edge from-layer="2753" from-port="0" to-layer="2754" to-port="0" />
		<edge from-layer="2754" from-port="1" to-layer="2755" to-port="1" />
		<edge from-layer="2755" from-port="2" to-layer="2758" to-port="0" />
		<edge from-layer="2756" from-port="0" to-layer="2757" to-port="0" />
		<edge from-layer="2757" from-port="1" to-layer="2758" to-port="1" />
		<edge from-layer="2758" from-port="2" to-layer="2759" to-port="0" />
		<edge from-layer="2759" from-port="1" to-layer="2762" to-port="0" />
		<edge from-layer="2760" from-port="0" to-layer="2761" to-port="0" />
		<edge from-layer="2761" from-port="1" to-layer="2762" to-port="1" />
		<edge from-layer="2762" from-port="2" to-layer="2765" to-port="0" />
		<edge from-layer="2763" from-port="0" to-layer="2764" to-port="0" />
		<edge from-layer="2764" from-port="1" to-layer="2765" to-port="1" />
		<edge from-layer="2765" from-port="2" to-layer="2766" to-port="0" />
		<edge from-layer="2766" from-port="1" to-layer="2767" to-port="1" />
		<edge from-layer="2767" from-port="2" to-layer="2770" to-port="0" />
		<edge from-layer="2768" from-port="0" to-layer="2769" to-port="0" />
		<edge from-layer="2769" from-port="1" to-layer="2770" to-port="1" />
		<edge from-layer="2770" from-port="2" to-layer="2773" to-port="0" />
		<edge from-layer="2771" from-port="0" to-layer="2772" to-port="0" />
		<edge from-layer="2772" from-port="1" to-layer="2773" to-port="1" />
		<edge from-layer="2773" from-port="2" to-layer="2774" to-port="1" />
		<edge from-layer="2774" from-port="2" to-layer="2775" to-port="0" />
		<edge from-layer="2775" from-port="1" to-layer="2778" to-port="0" />
		<edge from-layer="2775" from-port="1" to-layer="2785" to-port="0" />
		<edge from-layer="2775" from-port="1" to-layer="2811" to-port="0" />
		<edge from-layer="2776" from-port="0" to-layer="2777" to-port="0" />
		<edge from-layer="2777" from-port="1" to-layer="2778" to-port="1" />
		<edge from-layer="2778" from-port="2" to-layer="2781" to-port="0" />
		<edge from-layer="2779" from-port="0" to-layer="2780" to-port="0" />
		<edge from-layer="2780" from-port="1" to-layer="2781" to-port="1" />
		<edge from-layer="2781" from-port="2" to-layer="2782" to-port="0" />
		<edge from-layer="2782" from-port="1" to-layer="2804" to-port="0" />
		<edge from-layer="2783" from-port="0" to-layer="2784" to-port="0" />
		<edge from-layer="2784" from-port="1" to-layer="2785" to-port="1" />
		<edge from-layer="2785" from-port="2" to-layer="2788" to-port="0" />
		<edge from-layer="2786" from-port="0" to-layer="2787" to-port="0" />
		<edge from-layer="2787" from-port="1" to-layer="2788" to-port="1" />
		<edge from-layer="2788" from-port="2" to-layer="2789" to-port="0" />
		<edge from-layer="2789" from-port="1" to-layer="2792" to-port="0" />
		<edge from-layer="2790" from-port="0" to-layer="2791" to-port="0" />
		<edge from-layer="2791" from-port="1" to-layer="2792" to-port="1" />
		<edge from-layer="2792" from-port="2" to-layer="2795" to-port="0" />
		<edge from-layer="2793" from-port="0" to-layer="2794" to-port="0" />
		<edge from-layer="2794" from-port="1" to-layer="2795" to-port="1" />
		<edge from-layer="2795" from-port="2" to-layer="2796" to-port="0" />
		<edge from-layer="2796" from-port="1" to-layer="2799" to-port="0" />
		<edge from-layer="2797" from-port="0" to-layer="2798" to-port="0" />
		<edge from-layer="2798" from-port="1" to-layer="2799" to-port="1" />
		<edge from-layer="2799" from-port="2" to-layer="2802" to-port="0" />
		<edge from-layer="2800" from-port="0" to-layer="2801" to-port="0" />
		<edge from-layer="2801" from-port="1" to-layer="2802" to-port="1" />
		<edge from-layer="2802" from-port="2" to-layer="2803" to-port="0" />
		<edge from-layer="2803" from-port="1" to-layer="2804" to-port="1" />
		<edge from-layer="2804" from-port="2" to-layer="2807" to-port="0" />
		<edge from-layer="2805" from-port="0" to-layer="2806" to-port="0" />
		<edge from-layer="2806" from-port="1" to-layer="2807" to-port="1" />
		<edge from-layer="2807" from-port="2" to-layer="2810" to-port="0" />
		<edge from-layer="2808" from-port="0" to-layer="2809" to-port="0" />
		<edge from-layer="2809" from-port="1" to-layer="2810" to-port="1" />
		<edge from-layer="2810" from-port="2" to-layer="2811" to-port="1" />
		<edge from-layer="2811" from-port="2" to-layer="2812" to-port="0" />
		<edge from-layer="2812" from-port="1" to-layer="2815" to-port="0" />
		<edge from-layer="2812" from-port="1" to-layer="2822" to-port="0" />
		<edge from-layer="2812" from-port="1" to-layer="2848" to-port="0" />
		<edge from-layer="2813" from-port="0" to-layer="2814" to-port="0" />
		<edge from-layer="2814" from-port="1" to-layer="2815" to-port="1" />
		<edge from-layer="2815" from-port="2" to-layer="2818" to-port="0" />
		<edge from-layer="2816" from-port="0" to-layer="2817" to-port="0" />
		<edge from-layer="2817" from-port="1" to-layer="2818" to-port="1" />
		<edge from-layer="2818" from-port="2" to-layer="2819" to-port="0" />
		<edge from-layer="2819" from-port="1" to-layer="2841" to-port="0" />
		<edge from-layer="2820" from-port="0" to-layer="2821" to-port="0" />
		<edge from-layer="2821" from-port="1" to-layer="2822" to-port="1" />
		<edge from-layer="2822" from-port="2" to-layer="2825" to-port="0" />
		<edge from-layer="2823" from-port="0" to-layer="2824" to-port="0" />
		<edge from-layer="2824" from-port="1" to-layer="2825" to-port="1" />
		<edge from-layer="2825" from-port="2" to-layer="2826" to-port="0" />
		<edge from-layer="2826" from-port="1" to-layer="2829" to-port="0" />
		<edge from-layer="2827" from-port="0" to-layer="2828" to-port="0" />
		<edge from-layer="2828" from-port="1" to-layer="2829" to-port="1" />
		<edge from-layer="2829" from-port="2" to-layer="2832" to-port="0" />
		<edge from-layer="2830" from-port="0" to-layer="2831" to-port="0" />
		<edge from-layer="2831" from-port="1" to-layer="2832" to-port="1" />
		<edge from-layer="2832" from-port="2" to-layer="2833" to-port="0" />
		<edge from-layer="2833" from-port="1" to-layer="2836" to-port="0" />
		<edge from-layer="2834" from-port="0" to-layer="2835" to-port="0" />
		<edge from-layer="2835" from-port="1" to-layer="2836" to-port="1" />
		<edge from-layer="2836" from-port="2" to-layer="2839" to-port="0" />
		<edge from-layer="2837" from-port="0" to-layer="2838" to-port="0" />
		<edge from-layer="2838" from-port="1" to-layer="2839" to-port="1" />
		<edge from-layer="2839" from-port="2" to-layer="2840" to-port="0" />
		<edge from-layer="2840" from-port="1" to-layer="2841" to-port="1" />
		<edge from-layer="2841" from-port="2" to-layer="2844" to-port="0" />
		<edge from-layer="2842" from-port="0" to-layer="2843" to-port="0" />
		<edge from-layer="2843" from-port="1" to-layer="2844" to-port="1" />
		<edge from-layer="2844" from-port="2" to-layer="2847" to-port="0" />
		<edge from-layer="2845" from-port="0" to-layer="2846" to-port="0" />
		<edge from-layer="2846" from-port="1" to-layer="2847" to-port="1" />
		<edge from-layer="2847" from-port="2" to-layer="2848" to-port="1" />
		<edge from-layer="2848" from-port="2" to-layer="2849" to-port="0" />
		<edge from-layer="2849" from-port="1" to-layer="2852" to-port="0" />
		<edge from-layer="2849" from-port="1" to-layer="2859" to-port="0" />
		<edge from-layer="2849" from-port="1" to-layer="2885" to-port="0" />
		<edge from-layer="2850" from-port="0" to-layer="2851" to-port="0" />
		<edge from-layer="2851" from-port="1" to-layer="2852" to-port="1" />
		<edge from-layer="2852" from-port="2" to-layer="2855" to-port="0" />
		<edge from-layer="2853" from-port="0" to-layer="2854" to-port="0" />
		<edge from-layer="2854" from-port="1" to-layer="2855" to-port="1" />
		<edge from-layer="2855" from-port="2" to-layer="2856" to-port="0" />
		<edge from-layer="2856" from-port="1" to-layer="2878" to-port="0" />
		<edge from-layer="2857" from-port="0" to-layer="2858" to-port="0" />
		<edge from-layer="2858" from-port="1" to-layer="2859" to-port="1" />
		<edge from-layer="2859" from-port="2" to-layer="2862" to-port="0" />
		<edge from-layer="2860" from-port="0" to-layer="2861" to-port="0" />
		<edge from-layer="2861" from-port="1" to-layer="2862" to-port="1" />
		<edge from-layer="2862" from-port="2" to-layer="2863" to-port="0" />
		<edge from-layer="2863" from-port="1" to-layer="2866" to-port="0" />
		<edge from-layer="2864" from-port="0" to-layer="2865" to-port="0" />
		<edge from-layer="2865" from-port="1" to-layer="2866" to-port="1" />
		<edge from-layer="2866" from-port="2" to-layer="2869" to-port="0" />
		<edge from-layer="2867" from-port="0" to-layer="2868" to-port="0" />
		<edge from-layer="2868" from-port="1" to-layer="2869" to-port="1" />
		<edge from-layer="2869" from-port="2" to-layer="2870" to-port="0" />
		<edge from-layer="2870" from-port="1" to-layer="2873" to-port="0" />
		<edge from-layer="2871" from-port="0" to-layer="2872" to-port="0" />
		<edge from-layer="2872" from-port="1" to-layer="2873" to-port="1" />
		<edge from-layer="2873" from-port="2" to-layer="2876" to-port="0" />
		<edge from-layer="2874" from-port="0" to-layer="2875" to-port="0" />
		<edge from-layer="2875" from-port="1" to-layer="2876" to-port="1" />
		<edge from-layer="2876" from-port="2" to-layer="2877" to-port="0" />
		<edge from-layer="2877" from-port="1" to-layer="2878" to-port="1" />
		<edge from-layer="2878" from-port="2" to-layer="2881" to-port="0" />
		<edge from-layer="2879" from-port="0" to-layer="2880" to-port="0" />
		<edge from-layer="2880" from-port="1" to-layer="2881" to-port="1" />
		<edge from-layer="2881" from-port="2" to-layer="2884" to-port="0" />
		<edge from-layer="2882" from-port="0" to-layer="2883" to-port="0" />
		<edge from-layer="2883" from-port="1" to-layer="2884" to-port="1" />
		<edge from-layer="2884" from-port="2" to-layer="2885" to-port="1" />
		<edge from-layer="2885" from-port="2" to-layer="2886" to-port="0" />
		<edge from-layer="2886" from-port="1" to-layer="2922" to-port="0" />
		<edge from-layer="2886" from-port="1" to-layer="2889" to-port="0" />
		<edge from-layer="2886" from-port="1" to-layer="2896" to-port="0" />
		<edge from-layer="2887" from-port="0" to-layer="2888" to-port="0" />
		<edge from-layer="2888" from-port="1" to-layer="2889" to-port="1" />
		<edge from-layer="2889" from-port="2" to-layer="2892" to-port="0" />
		<edge from-layer="2890" from-port="0" to-layer="2891" to-port="0" />
		<edge from-layer="2891" from-port="1" to-layer="2892" to-port="1" />
		<edge from-layer="2892" from-port="2" to-layer="2893" to-port="0" />
		<edge from-layer="2893" from-port="1" to-layer="2915" to-port="0" />
		<edge from-layer="2894" from-port="0" to-layer="2895" to-port="0" />
		<edge from-layer="2895" from-port="1" to-layer="2896" to-port="1" />
		<edge from-layer="2896" from-port="2" to-layer="2899" to-port="0" />
		<edge from-layer="2897" from-port="0" to-layer="2898" to-port="0" />
		<edge from-layer="2898" from-port="1" to-layer="2899" to-port="1" />
		<edge from-layer="2899" from-port="2" to-layer="2900" to-port="0" />
		<edge from-layer="2900" from-port="1" to-layer="2903" to-port="0" />
		<edge from-layer="2901" from-port="0" to-layer="2902" to-port="0" />
		<edge from-layer="2902" from-port="1" to-layer="2903" to-port="1" />
		<edge from-layer="2903" from-port="2" to-layer="2906" to-port="0" />
		<edge from-layer="2904" from-port="0" to-layer="2905" to-port="0" />
		<edge from-layer="2905" from-port="1" to-layer="2906" to-port="1" />
		<edge from-layer="2906" from-port="2" to-layer="2907" to-port="0" />
		<edge from-layer="2907" from-port="1" to-layer="2910" to-port="0" />
		<edge from-layer="2908" from-port="0" to-layer="2909" to-port="0" />
		<edge from-layer="2909" from-port="1" to-layer="2910" to-port="1" />
		<edge from-layer="2910" from-port="2" to-layer="2913" to-port="0" />
		<edge from-layer="2911" from-port="0" to-layer="2912" to-port="0" />
		<edge from-layer="2912" from-port="1" to-layer="2913" to-port="1" />
		<edge from-layer="2913" from-port="2" to-layer="2914" to-port="0" />
		<edge from-layer="2914" from-port="1" to-layer="2915" to-port="1" />
		<edge from-layer="2915" from-port="2" to-layer="2918" to-port="0" />
		<edge from-layer="2916" from-port="0" to-layer="2917" to-port="0" />
		<edge from-layer="2917" from-port="1" to-layer="2918" to-port="1" />
		<edge from-layer="2918" from-port="2" to-layer="2921" to-port="0" />
		<edge from-layer="2919" from-port="0" to-layer="2920" to-port="0" />
		<edge from-layer="2920" from-port="1" to-layer="2921" to-port="1" />
		<edge from-layer="2921" from-port="2" to-layer="2922" to-port="1" />
		<edge from-layer="2922" from-port="2" to-layer="2923" to-port="0" />
		<edge from-layer="2923" from-port="1" to-layer="2926" to-port="0" />
		<edge from-layer="2923" from-port="1" to-layer="2933" to-port="0" />
		<edge from-layer="2923" from-port="1" to-layer="2959" to-port="0" />
		<edge from-layer="2924" from-port="0" to-layer="2925" to-port="0" />
		<edge from-layer="2925" from-port="1" to-layer="2926" to-port="1" />
		<edge from-layer="2926" from-port="2" to-layer="2929" to-port="0" />
		<edge from-layer="2927" from-port="0" to-layer="2928" to-port="0" />
		<edge from-layer="2928" from-port="1" to-layer="2929" to-port="1" />
		<edge from-layer="2929" from-port="2" to-layer="2930" to-port="0" />
		<edge from-layer="2930" from-port="1" to-layer="2952" to-port="0" />
		<edge from-layer="2931" from-port="0" to-layer="2932" to-port="0" />
		<edge from-layer="2932" from-port="1" to-layer="2933" to-port="1" />
		<edge from-layer="2933" from-port="2" to-layer="2936" to-port="0" />
		<edge from-layer="2934" from-port="0" to-layer="2935" to-port="0" />
		<edge from-layer="2935" from-port="1" to-layer="2936" to-port="1" />
		<edge from-layer="2936" from-port="2" to-layer="2937" to-port="0" />
		<edge from-layer="2937" from-port="1" to-layer="2940" to-port="0" />
		<edge from-layer="2938" from-port="0" to-layer="2939" to-port="0" />
		<edge from-layer="2939" from-port="1" to-layer="2940" to-port="1" />
		<edge from-layer="2940" from-port="2" to-layer="2943" to-port="0" />
		<edge from-layer="2941" from-port="0" to-layer="2942" to-port="0" />
		<edge from-layer="2942" from-port="1" to-layer="2943" to-port="1" />
		<edge from-layer="2943" from-port="2" to-layer="2944" to-port="0" />
		<edge from-layer="2944" from-port="1" to-layer="2947" to-port="0" />
		<edge from-layer="2945" from-port="0" to-layer="2946" to-port="0" />
		<edge from-layer="2946" from-port="1" to-layer="2947" to-port="1" />
		<edge from-layer="2947" from-port="2" to-layer="2950" to-port="0" />
		<edge from-layer="2948" from-port="0" to-layer="2949" to-port="0" />
		<edge from-layer="2949" from-port="1" to-layer="2950" to-port="1" />
		<edge from-layer="2950" from-port="2" to-layer="2951" to-port="0" />
		<edge from-layer="2951" from-port="1" to-layer="2952" to-port="1" />
		<edge from-layer="2952" from-port="2" to-layer="2955" to-port="0" />
		<edge from-layer="2953" from-port="0" to-layer="2954" to-port="0" />
		<edge from-layer="2954" from-port="1" to-layer="2955" to-port="1" />
		<edge from-layer="2955" from-port="2" to-layer="2958" to-port="0" />
		<edge from-layer="2956" from-port="0" to-layer="2957" to-port="0" />
		<edge from-layer="2957" from-port="1" to-layer="2958" to-port="1" />
		<edge from-layer="2958" from-port="2" to-layer="2959" to-port="1" />
		<edge from-layer="2959" from-port="2" to-layer="2960" to-port="0" />
		<edge from-layer="2960" from-port="1" to-layer="2963" to-port="0" />
		<edge from-layer="2960" from-port="1" to-layer="2970" to-port="0" />
		<edge from-layer="2960" from-port="1" to-layer="2996" to-port="0" />
		<edge from-layer="2961" from-port="0" to-layer="2962" to-port="0" />
		<edge from-layer="2962" from-port="1" to-layer="2963" to-port="1" />
		<edge from-layer="2963" from-port="2" to-layer="2966" to-port="0" />
		<edge from-layer="2964" from-port="0" to-layer="2965" to-port="0" />
		<edge from-layer="2965" from-port="1" to-layer="2966" to-port="1" />
		<edge from-layer="2966" from-port="2" to-layer="2967" to-port="0" />
		<edge from-layer="2967" from-port="1" to-layer="2989" to-port="0" />
		<edge from-layer="2968" from-port="0" to-layer="2969" to-port="0" />
		<edge from-layer="2969" from-port="1" to-layer="2970" to-port="1" />
		<edge from-layer="2970" from-port="2" to-layer="2973" to-port="0" />
		<edge from-layer="2971" from-port="0" to-layer="2972" to-port="0" />
		<edge from-layer="2972" from-port="1" to-layer="2973" to-port="1" />
		<edge from-layer="2973" from-port="2" to-layer="2974" to-port="0" />
		<edge from-layer="2974" from-port="1" to-layer="2977" to-port="0" />
		<edge from-layer="2975" from-port="0" to-layer="2976" to-port="0" />
		<edge from-layer="2976" from-port="1" to-layer="2977" to-port="1" />
		<edge from-layer="2977" from-port="2" to-layer="2980" to-port="0" />
		<edge from-layer="2978" from-port="0" to-layer="2979" to-port="0" />
		<edge from-layer="2979" from-port="1" to-layer="2980" to-port="1" />
		<edge from-layer="2980" from-port="2" to-layer="2981" to-port="0" />
		<edge from-layer="2981" from-port="1" to-layer="2984" to-port="0" />
		<edge from-layer="2982" from-port="0" to-layer="2983" to-port="0" />
		<edge from-layer="2983" from-port="1" to-layer="2984" to-port="1" />
		<edge from-layer="2984" from-port="2" to-layer="2987" to-port="0" />
		<edge from-layer="2985" from-port="0" to-layer="2986" to-port="0" />
		<edge from-layer="2986" from-port="1" to-layer="2987" to-port="1" />
		<edge from-layer="2987" from-port="2" to-layer="2988" to-port="0" />
		<edge from-layer="2988" from-port="1" to-layer="2989" to-port="1" />
		<edge from-layer="2989" from-port="2" to-layer="2992" to-port="0" />
		<edge from-layer="2990" from-port="0" to-layer="2991" to-port="0" />
		<edge from-layer="2991" from-port="1" to-layer="2992" to-port="1" />
		<edge from-layer="2992" from-port="2" to-layer="2995" to-port="0" />
		<edge from-layer="2993" from-port="0" to-layer="2994" to-port="0" />
		<edge from-layer="2994" from-port="1" to-layer="2995" to-port="1" />
		<edge from-layer="2995" from-port="2" to-layer="2996" to-port="1" />
		<edge from-layer="2996" from-port="2" to-layer="2997" to-port="0" />
		<edge from-layer="2997" from-port="1" to-layer="3000" to-port="0" />
		<edge from-layer="2997" from-port="1" to-layer="3007" to-port="0" />
		<edge from-layer="2997" from-port="1" to-layer="3033" to-port="0" />
		<edge from-layer="2998" from-port="0" to-layer="2999" to-port="0" />
		<edge from-layer="2999" from-port="1" to-layer="3000" to-port="1" />
		<edge from-layer="3000" from-port="2" to-layer="3003" to-port="0" />
		<edge from-layer="3001" from-port="0" to-layer="3002" to-port="0" />
		<edge from-layer="3002" from-port="1" to-layer="3003" to-port="1" />
		<edge from-layer="3003" from-port="2" to-layer="3004" to-port="0" />
		<edge from-layer="3004" from-port="1" to-layer="3026" to-port="0" />
		<edge from-layer="3005" from-port="0" to-layer="3006" to-port="0" />
		<edge from-layer="3006" from-port="1" to-layer="3007" to-port="1" />
		<edge from-layer="3007" from-port="2" to-layer="3010" to-port="0" />
		<edge from-layer="3008" from-port="0" to-layer="3009" to-port="0" />
		<edge from-layer="3009" from-port="1" to-layer="3010" to-port="1" />
		<edge from-layer="3010" from-port="2" to-layer="3011" to-port="0" />
		<edge from-layer="3011" from-port="1" to-layer="3014" to-port="0" />
		<edge from-layer="3012" from-port="0" to-layer="3013" to-port="0" />
		<edge from-layer="3013" from-port="1" to-layer="3014" to-port="1" />
		<edge from-layer="3014" from-port="2" to-layer="3017" to-port="0" />
		<edge from-layer="3015" from-port="0" to-layer="3016" to-port="0" />
		<edge from-layer="3016" from-port="1" to-layer="3017" to-port="1" />
		<edge from-layer="3017" from-port="2" to-layer="3018" to-port="0" />
		<edge from-layer="3018" from-port="1" to-layer="3021" to-port="0" />
		<edge from-layer="3019" from-port="0" to-layer="3020" to-port="0" />
		<edge from-layer="3020" from-port="1" to-layer="3021" to-port="1" />
		<edge from-layer="3021" from-port="2" to-layer="3024" to-port="0" />
		<edge from-layer="3022" from-port="0" to-layer="3023" to-port="0" />
		<edge from-layer="3023" from-port="1" to-layer="3024" to-port="1" />
		<edge from-layer="3024" from-port="2" to-layer="3025" to-port="0" />
		<edge from-layer="3025" from-port="1" to-layer="3026" to-port="1" />
		<edge from-layer="3026" from-port="2" to-layer="3029" to-port="0" />
		<edge from-layer="3027" from-port="0" to-layer="3028" to-port="0" />
		<edge from-layer="3028" from-port="1" to-layer="3029" to-port="1" />
		<edge from-layer="3029" from-port="2" to-layer="3032" to-port="0" />
		<edge from-layer="3030" from-port="0" to-layer="3031" to-port="0" />
		<edge from-layer="3031" from-port="1" to-layer="3032" to-port="1" />
		<edge from-layer="3032" from-port="2" to-layer="3033" to-port="1" />
		<edge from-layer="3033" from-port="2" to-layer="3036" to-port="0" />
		<edge from-layer="3034" from-port="0" to-layer="3035" to-port="0" />
		<edge from-layer="3035" from-port="1" to-layer="3036" to-port="1" />
		<edge from-layer="3036" from-port="2" to-layer="3039" to-port="0" />
		<edge from-layer="3037" from-port="0" to-layer="3038" to-port="0" />
		<edge from-layer="3038" from-port="1" to-layer="3039" to-port="1" />
		<edge from-layer="3039" from-port="2" to-layer="3040" to-port="0" />
		<edge from-layer="3040" from-port="1" to-layer="3042" to-port="0" />
		<edge from-layer="3041" from-port="0" to-layer="3042" to-port="1" />
		<edge from-layer="3042" from-port="2" to-layer="3045" to-port="0" />
		<edge from-layer="3043" from-port="0" to-layer="3045" to-port="1" />
		<edge from-layer="3044" from-port="0" to-layer="3045" to-port="2" />
		<edge from-layer="3045" from-port="3" to-layer="3047" to-port="0" />
		<edge from-layer="3046" from-port="0" to-layer="3047" to-port="1" />
		<edge from-layer="3047" from-port="2" to-layer="3050" to-port="0" />
		<edge from-layer="3048" from-port="0" to-layer="3049" to-port="0" />
		<edge from-layer="3049" from-port="1" to-layer="3050" to-port="1" />
		<edge from-layer="3050" from-port="2" to-layer="3053" to-port="0" />
		<edge from-layer="3051" from-port="0" to-layer="3052" to-port="0" />
		<edge from-layer="3052" from-port="1" to-layer="3053" to-port="1" />
		<edge from-layer="3053" from-port="2" to-layer="3054" to-port="0" />
		<edge from-layer="3054" from-port="1" to-layer="3057" to-port="0" />
		<edge from-layer="3055" from-port="0" to-layer="3056" to-port="0" />
		<edge from-layer="3056" from-port="1" to-layer="3057" to-port="1" />
		<edge from-layer="3057" from-port="2" to-layer="3060" to-port="0" />
		<edge from-layer="3058" from-port="0" to-layer="3059" to-port="0" />
		<edge from-layer="3059" from-port="1" to-layer="3060" to-port="1" />
		<edge from-layer="3060" from-port="2" to-layer="3061" to-port="0" />
		<edge from-layer="3061" from-port="1" to-layer="3064" to-port="0" />
		<edge from-layer="3062" from-port="0" to-layer="3063" to-port="0" />
		<edge from-layer="3063" from-port="1" to-layer="3064" to-port="1" />
		<edge from-layer="3064" from-port="2" to-layer="3067" to-port="0" />
		<edge from-layer="3065" from-port="0" to-layer="3066" to-port="0" />
		<edge from-layer="3066" from-port="1" to-layer="3067" to-port="1" />
		<edge from-layer="3067" from-port="2" to-layer="3068" to-port="0" />
		<edge from-layer="3068" from-port="1" to-layer="3071" to-port="0" />
		<edge from-layer="3069" from-port="0" to-layer="3070" to-port="0" />
		<edge from-layer="3070" from-port="1" to-layer="3071" to-port="1" />
		<edge from-layer="3071" from-port="2" to-layer="3074" to-port="0" />
		<edge from-layer="3072" from-port="0" to-layer="3073" to-port="0" />
		<edge from-layer="3073" from-port="1" to-layer="3074" to-port="1" />
		<edge from-layer="3074" from-port="2" to-layer="3076" to-port="0" />
		<edge from-layer="3075" from-port="0" to-layer="3076" to-port="1" />
		<edge from-layer="3076" from-port="2" to-layer="3078" to-port="0" />
		<edge from-layer="3077" from-port="0" to-layer="3078" to-port="1" />
		<edge from-layer="3078" from-port="2" to-layer="3079" to-port="0" />
		<edge from-layer="3078" from-port="2" to-layer="3154" to-port="0" />
		<edge from-layer="3079" from-port="1" to-layer="3090" to-port="0" />
		<edge from-layer="3080" from-port="0" to-layer="3083" to-port="1" />
		<edge from-layer="3081" from-port="0" to-layer="3083" to-port="2" />
		<edge from-layer="3082" from-port="0" to-layer="3083" to-port="3" />
		<edge from-layer="3083" from-port="4" to-layer="3085" to-port="0" />
		<edge from-layer="3084" from-port="0" to-layer="3085" to-port="1" />
		<edge from-layer="3085" from-port="2" to-layer="3089" to-port="0" />
		<edge from-layer="3086" from-port="0" to-layer="3089" to-port="1" />
		<edge from-layer="3087" from-port="0" to-layer="3089" to-port="2" />
		<edge from-layer="3088" from-port="0" to-layer="3089" to-port="3" />
		<edge from-layer="3089" from-port="4" to-layer="3090" to-port="1" />
		<edge from-layer="3090" from-port="2" to-layer="3091" to-port="0" />
		<edge from-layer="3092" from-port="1" to-layer="3095" to-port="0" />
		<edge from-layer="3093" from-port="0" to-layer="3095" to-port="1" />
		<edge from-layer="3094" from-port="0" to-layer="3095" to-port="2" />
		<edge from-layer="3094" from-port="0" to-layer="3095" to-port="3" />
		<edge from-layer="3095" from-port="4" to-layer="3097" to-port="0" />
		<edge from-layer="3096" from-port="0" to-layer="3097" to-port="1" />
		<edge from-layer="3097" from-port="2" to-layer="3098" to-port="1" />
		<edge from-layer="3098" from-port="2" to-layer="3101" to-port="0" />
		<edge from-layer="3099" from-port="0" to-layer="3100" to-port="0" />
		<edge from-layer="3100" from-port="1" to-layer="3101" to-port="1" />
		<edge from-layer="3101" from-port="2" to-layer="3102" to-port="0" />
		<edge from-layer="3104" from-port="1" to-layer="3107" to-port="0" />
		<edge from-layer="3105" from-port="0" to-layer="3107" to-port="1" />
		<edge from-layer="3106" from-port="0" to-layer="3107" to-port="2" />
		<edge from-layer="3106" from-port="0" to-layer="3107" to-port="3" />
		<edge from-layer="3107" from-port="4" to-layer="3109" to-port="0" />
		<edge from-layer="3108" from-port="0" to-layer="3109" to-port="1" />
		<edge from-layer="3109" from-port="2" to-layer="3110" to-port="1" />
		<edge from-layer="3110" from-port="2" to-layer="3111" to-port="0" />
		<edge from-layer="3111" from-port="1" to-layer="3112" to-port="0" />
		<edge from-layer="3112" from-port="1" to-layer="3113" to-port="0" />
		<edge from-layer="3119" from-port="0" to-layer="3133" to-port="0" />
		<edge from-layer="3120" from-port="0" to-layer="3128" to-port="0" />
		<edge from-layer="3120" from-port="0" to-layer="3133" to-port="2" />
		<edge from-layer="3121" from-port="0" to-layer="3122" to-port="1" />
		<edge from-layer="3122" from-port="2" to-layer="3123" to-port="0" />
		<edge from-layer="3122" from-port="2" to-layer="3133" to-port="7" />
		<edge from-layer="3123" from-port="1" to-layer="3127" to-port="0" />
		<edge from-layer="3124" from-port="0" to-layer="3127" to-port="1" />
		<edge from-layer="3125" from-port="0" to-layer="3127" to-port="2" />
		<edge from-layer="3126" from-port="0" to-layer="3127" to-port="3" />
		<edge from-layer="3127" from-port="4" to-layer="3128" to-port="1" />
		<edge from-layer="3127" from-port="4" to-layer="3130" to-port="1" />
		<edge from-layer="3127" from-port="4" to-layer="3133" to-port="3" />
		<edge from-layer="3127" from-port="4" to-layer="3133" to-port="6" />
		<edge from-layer="3128" from-port="2" to-layer="3131" to-port="0" />
		<edge from-layer="3129" from-port="0" to-layer="3130" to-port="0" />
		<edge from-layer="3129" from-port="0" to-layer="3133" to-port="4" />
		<edge from-layer="3130" from-port="2" to-layer="3131" to-port="1" />
		<edge from-layer="3131" from-port="2" to-layer="3133" to-port="1" />
		<edge from-layer="3132" from-port="0" to-layer="3133" to-port="5" />
		<edge from-layer="3133" from-port="9" to-layer="3134" to-port="0" />
		<edge from-layer="3133" from-port="9" to-layer="3140" to-port="0" />
		<edge from-layer="3134" from-port="1" to-layer="3137" to-port="0" />
		<edge from-layer="3135" from-port="0" to-layer="3137" to-port="1" />
		<edge from-layer="3136" from-port="0" to-layer="3137" to-port="2" />
		<edge from-layer="3136" from-port="0" to-layer="3137" to-port="3" />
		<edge from-layer="3137" from-port="4" to-layer="3139" to-port="0" />
		<edge from-layer="3138" from-port="0" to-layer="3139" to-port="1" />
		<edge from-layer="3139" from-port="2" to-layer="3140" to-port="1" />
		<edge from-layer="3140" from-port="2" to-layer="3141" to-port="0" />
		<edge from-layer="3144" from-port="1" to-layer="3145" to-port="0" />
		<edge from-layer="3146" from-port="1" to-layer="3149" to-port="0" />
		<edge from-layer="3147" from-port="0" to-layer="3149" to-port="1" />
		<edge from-layer="3148" from-port="0" to-layer="3149" to-port="2" />
		<edge from-layer="3148" from-port="0" to-layer="3149" to-port="3" />
		<edge from-layer="3149" from-port="4" to-layer="3150" to-port="1" />
		<edge from-layer="3150" from-port="2" to-layer="3151" to-port="0" />
		<edge from-layer="3151" from-port="1" to-layer="3152" to-port="0" />
		<edge from-layer="3153" from-port="0" to-layer="3154" to-port="1" />
		<edge from-layer="3154" from-port="2" to-layer="3155" to-port="0" />
		<edge from-layer="3156" from-port="1" to-layer="3157" to-port="0" />
		<edge from-layer="3158" from-port="0" to-layer="3159" to-port="1" />
		<edge from-layer="3159" from-port="2" to-layer="3160" to-port="0" />
	</edges>
	<rt_info>
		<MO_version value="2023.1.0-12185-9e6b00e51cd-releases/2023/1" />
		<Runtime_version value="2023.1.0-12185-9e6b00e51cd-releases/2023/1" />
		<conversion_parameters>
			<is_python_api_used value="False" />
			<saved_model_dir value="DIR" />
		</conversion_parameters>
		<legacy_frontend value="False" />
	</rt_info>
</net>
